models/model-doom-cacodemon.pth (torch, 76459 bytes, 27 tensors)

weight f4 [8, 1, 3, 3]
0.5455211 -1.1958191 -0.7890183 0.15606713 0.22744049 0.9062378 -1.0174478 -1.1622021
-0.5665189 -1.7302032 -1.0659331 0.2983181 1.761489 -1.6673211 -0.8277874 3.8995895
-2.4429498 1.4264135 -1.2111635 0.122071765 -2.5449376 1.4300393 2.088243 0.23917471
-0.29915527 -1.887604 0.4004443 0.90383154 0.3613193 -3.24194 1.4555097 0.22287758
-0.4020476 -1.2158856 -0.7865484 0.10385889 0.046054494 -0.16671932 1.73223 1.6358852
-0.021261152 1.7236159 -0.24502435 -1.3994652 0.35263547 0.16099846 3.571325 -1.3599288
-2.3101344 1.0523969 0.8902751 -0.7467199 -2.173858 0.48215905 0.21653807 1.3507897
-1.8529093 -0.48335728 -1.0119716 -1.4356054 -0.50484365 1.6875578 -0.8044451 1.507658
-2.4654825 0.6952935 -0.3259364 -2.568129 0.49890053 0.24038792 -0.8957441 1.1827987
00000000: 45a7 0b3f 9a10 99bf 1afd 49bf 10d0 1f3e
00000010: 29e6 683e 33ff 673f bb3b 82bf 0ac3 94bf
00000020: 6207 11bf 4c77 ddbf 7f70 88bf 26bd 983e
00000030: 7978 e13f c76a d5bf e0e9 53bf e092 7940
00000040: 4a59 1cc0 b894 b63f 6807 9bbf c300 fa3d
00000050: 42e0 22c0 870b b73f c6a5 0540 37ea 743e
00000060: e12a 99be 029d f1bf 0907 cd3e 8161 673f
00000070: d8fe b83e f27b 4fc0 244e ba3f 053a 643e
00000080: 2fd9 cdbe 24a2 9bbf 3c5b 49bf f8b3 d43d
00000090: a3a3 3c3d 78b8 2abe b6b9 dd3f b064 d13f
000000a0: de2b aebc 729f dc3f aae7 7abe ad21 b3bf
000000b0: a38c b43e c8dc 243e 9790 6440 2612 aebf
000000c0: 3ed9 13c0 f1b4 863f 12e9 633f 0929 3fbf
000000d0: 7d20 0bc0 8ddd f63e 28bc 5d3e ade6 ac3f
000000e0: 222c edbf 9b7a f7be 4988 81bf ebc1 b7bf
000000f0: 6f3d 01bf e501 d83f 1df0 4dbf f0fa c03f
00000100: 77ca 1dc0 c1fe 313f 23e1 a6be 3a5c 24c0
00000110: e46f ff3e 4028 763e 7c4f 65bf f365 973f

weight f4 [8]
2.1976967 2.131612 1.5742608 2.1942859 2.3133075 2.5146449 3.1476219 2.0113769
00000000: 10a7 0c40 556c 0840 6181 c93f 2e6f 0c40
00000010: 3b0d 1440 f1ef 2040 a372 4940 66ba 0040

bias f4 [8]
-0.11313447 0.4214776 0.4095062 0.055171557 -1.174679 -1.0971335 -0.76233476 0.16465273
00000000: 0cb3 e7bd e9cb d73e ccaa d13e 92fb 613d
00000010: e25b 96bf df6e 8cbf 5f28 43bf ba9a 283e

running_mean f4 [8]
-0.9097478 -0.081994064 -0.51408356 -0.81427085 1.1301619 -0.15816455 -0.88506365 -0.65599155
00000000: 3be5 68bf 81ec a7bd fb9a 03bf 0e74 50bf
00000010: 25a9 903f e3f5 21be 8893 62bf 10ef 27bf

running_var f4 [8]
0.08130376 0.13209835 0.07029467 0.10403049 0.18508108 0.1120265 0.114355266 0.093233064
00000000: 9682 a63d ca44 073e a7f6 8f3d f00d d53d
00000010: e585 3d3e 266e e53d 1833 ea3d faf0 be3d

weight f4 [8, 8, 3, 3]
-0.37941417 -0.8081026 -0.3042681 0.27534476 -0.14782348 0.28134033 -0.53783756 -0.3490347
0.20661317 -1.641694 0.83235955 1.7798922 0.43788862 -0.90025115 0.2535157 0.8142457
-1.1788253 -0.020176109 -1.0217425 0.13171825 0.21613133 0.031571288 -0.9529017 -0.45166442
-0.79951745 -0.6970432 0.07777798 0.21052559 0.08197113 -0.13245182 0.2260635 -0.9761612
0.7280388 -0.14212592 -0.032426644 -0.50306773 -0.311693 -0.71470094 0.1591651 0.037803594
0.3212195 0.24456915 0.32032615 -0.9075906 -0.26965237 -0.3472196 0.52699155 1.0734073
-1.4866042 -0.20019566 -0.6358296 0.10527067 0.23507784 -0.13695085 1.148199 -0.5514589
0.041949052 0.20581745 -0.20249125 0.75277764 -0.53107303 0.5758207 0.58031917 -0.24778086
0.26968434 0.59298706 0.43828568 -1.4832208 0.470567 0.23027463 -0.3331682 0.09610091
-0.15470448 0.30425224 0.2331585 -0.2562787 -0.88407487 -0.12567705 0.3930038 0.14433259
0.96624047 -0.26141867 -0.19991791 0.14240797 1.2939595 0.36461288 0.62652594 -0.53663707
-1.9047358 0.17699742 0.16276515 0.6277892 0.41656846 -0.4314187 -0.17435077 0.07893955
0.30134884 -0.60373145 0.4154847 0.09688775 0.8842488 0.47025427 -0.11232029 0.4801315
-1.3605443 0.4923122 -0.46152627 1.1130972 -0.37802544 0.24372888 0.11239482 -0.540368
0.2886478 0.14694756 -0.046211105 0.6128609 -1.6366293 -1.7056195 0.7970776 -0.43312642
0.12970586 -0.81690633 0.4371839 0.20908234 0.6371615 0.23894864 -0.58977896 0.12370251
0.9381426 0.27482197 0.85157144 -1.3965662 -0.318172 -0.52673024 0.19014515 0.5054455
-1.4681115 0.43293774 -0.30353743 -0.10739611 -0.59375376 -0.61682916 0.31211388 0.012263751
0.057538632 0.20292854 -0.66710716 -0.03194111 0.4825956 0.06290628 0.31533456 0.026742306
0.14216024 0.08358229 0.2682974 -1.3741904 -0.25098655 -0.27457392 -0.5988984 -0.7529082
-0.14741236 0.103749596 -0.20893659 0.6813932 -1.3677552 0.5988564 -0.08761916 0.33678433
0.21303837 -0.68066084 -0.5078259 1.0021948 -0.7449944 -0.72890437 0.7930852 -0.5091329
-0.36604092 -0.13723266 -0.043904055 0.026001783 0.08450016 0.6986901 -0.20009482 -1.1403496
-0.4682233 -0.013975089 -0.3910447 0.01919223 0.8208799 0.13885093 1.4030612 -0.44759965
-0.16626285 -1.0695038 0.2981086 -0.7709487 0.1828874 0.39172724 1.5251428 -1.2484432
-0.14047307 0.39965582 0.007653945 -0.9794888 0.23606148 0.4354604 0.73135716 -0.060770765
0.10302281 0.027322007 -0.4543269 0.4855459 0.30451655 -0.33463708 0.19323584 0.9921359
0.69058585 -0.2731983 -0.4438429 -0.6355717 0.92212516 -1.181168 0.050876178 0.34865642
-0.570966 -0.38944784 0.77636117 -0.42966747 0.27815217 0.23478182 1.0367856 -0.8162119
-0.9504152 -0.14036998 0.22312188 -0.23855628 -0.3165352 0.66774845 0.069133945 -0.976928
-0.13370891 -0.45408812 -0.21518402 1.2053181 0.5802045 -1.4105833 0.18758695 0.24681872
-0.06666632 0.32463476 0.30264905 -0.092806816 -0.35559845 -0.5036937 0.055365052 -0.39851874
00000000: 9342 c2be d0df 4ebf 07c9 9bbe fdf9 8c3e
00000010: 0a5f 17be d70b 903e b9af 09bf adb4 b2be
00000020: 6792 533e 0723 d2bf 8415 553f 82d3 e33f
00000030: f032 e03e dc76 66bf cfcc 813e 6872 503f
00000040: bfe3 96bf 5e48 a5bc 75c8 82bf 26e1 063e
00000050: 8851 5d3e e550 013d 5ef1 73bf 8f40 e7be
00000060: 2dad 4cbf 6c71 32bf 104a 9f3d 0594 573e
00000070: 7be0 a73d 73a1 07be 317d 673e b3e5 79bf
00000080: c060 3a3f 7589 11be cdd1 04bd 0cc9 00bf
00000090: 3a96 9fbe a4f6 36bf 2dfc 223e f1d7 1a3d
000000a0: e276 a43e 5670 7a3e ca01 a43e dc57 68bf
000000b0: e00f 8abe c4c6 b1be ebe8 063f 6965 893f
000000c0: 0c49 bebf 1700 4dbe bbc5 22bf 2698 d73d
000000d0: 3fb8 703e d83c 0cbe 2ff8 923f 692c 0dbf
000000e0: c5d2 2b3d cfc1 523e de59 4fbe 09b6 403f
000000f0: 67f4 07bf fc68 133f cc8f 143f 44ba 7dbe
00000100: 1114 8a3e 00ce 173f fb66 e03e 2eda bdbf
00000110: 28ee f03e 1dcd 6b3e 0695 aabe 8ed0 c43d
00000120: da6a 1ebe f3c6 9b3e 1ac1 6e3e f636 83be
00000130: bb52 62bf 7cb1 00be cb37 c93e eccb 133e
00000140: 895b 773f abd8 85be 48b7 4cbe 65d3 113e
00000150: 77a0 a53f 8aae ba3e 0164 203f 0c61 09bf
00000160: 62ce f3bf d03e 353e e8ab 263e cbb6 203f
00000170: 7648 d53e e9e2 dcbe 0289 32be 0fab a13d
00000180: 654a 9a3e 258e 1abf 69ba d43e 166d c63d
00000190: 215e 623f 2bc5 f03e 2e08 e6bd ccd3 f53e
000001a0: 5126 aebf 5810 fc3e 2c4d ecbe f879 8e3f
000001b0: 8d8c c1be 1094 793e 412f e63d 8f55 0abf
000001c0: a5c9 933e 6c79 163e db47 3dbd 74e4 1c3f
000001d0: 127d d1bf bd51 dabf 470d 4c3f bfc2 ddbe
000001e0: 9dd1 043e c620 51bf 91d6 df3e ae19 563e
000001f0: 041d 233f f4ae 743e c1fb 16bf be57 fd3d
00000200: 1d2a 703f 77b5 8c3e 9600 5a3f aec2 b2bf
00000210: 71e7 a2be cbd7 06bf 69b5 423e e064 013f
00000220: 14eb bbbf 04aa dd3e 4269 9bbe 7ef2 dbbd
00000230: 3f00 18bf 84e8 1dbf 64cd 9f3e e6ed 483c
00000240: a1ad 6b3d 80cc 4f3e 89c7 2abf aed4 02bd
00000250: c516 f73e 02d5 803d 8873 a13e ae12 db3c
00000260: 7492 113e 312d ab3d 475e 893e 79e5 afbf
00000270: 4f81 80be f494 8cbe 6851 19bf 97be 40bf
00000280: 44f3 16be ab7a d43d 79f3 55be c96f 2e3f
00000290: 9a12 afbf a74e 193f ad71 b3bd ff6e ac3e
000002a0: bb26 5a3e ca3f 2ebf e100 02bf eb47 803f
000002b0: f4b7 3ebf 7a99 3abf a207 4b3f 8956 02bf
000002c0: b769 bbbe b886 0cbe bdd4 33bd b101 d53c
000002d0: 6b0e ad3d 5bdd 323f a8e5 4cbe faf6 91bf
000002e0: f7ba efbe c6f7 64bc 0337 c8be 0639 9d3c
000002f0: 2f25 523f f02e 0e3e 8297 b33f c82b e5be
00000300: cf40 2abe 80e5 88bf b1a1 983e e55c 45bf
00000310: d646 3b3e 7990 c83e e137 c33f fdcc 9fbf
00000320: 2cd8 0fbe b09f cc3e f2cd fa3b c7bf 7abf
00000330: 1aba 713e aaf4 de3e 393a 3b3f c4ea 78bd
00000340: 9ffd d23d 67d2 df3c 899d e8be 7999 f83e
00000350: 98e9 9b3e 8d55 abbe 9edf 453e 9efc 7d3f
00000360: 3cca 303f a6e0 8bbe 603f e3be d4b4 22bf
00000370: 6510 6c3f 8330 97bf 8a63 503d 1883 b23e
00000380: d42a 12bf b565 c7be 9bbf 463f 60fd dbbe
00000390: f669 8e3e a56a 703e 64b5 843f 43f3 50bf
000003a0: 694e 73bf 26bd 0fbe 107a 643e 1948 74be
000003b0: e710 a2be 90f1 2a3f 1996 8d3d f417 7abf
000003c0: fdea 08be 3d7e e8be 3359 5cbe dd47 9a3f
000003d0: 4888 143f fe8d b4bf cb16 403e 0cbe 7c3e
000003e0: 5a88 88bd 8736 a63e d1f4 9a3e 8011 bebd
000003f0: 0011 b6be 12f2 00bf 77c6 623d a60a ccbe

weight f4 [8]
2.0606892 1.7986706 2.4113343 1.8524762 2.4990458 2.4026775 2.4338555 2.2108822
00000000: 55e2 0340 d73a e63f 4d53 1a40 f11d ed3f
00000010: 5ef0 1f40 78c5 1940 4ac4 1b40 187f 0d40

bias f4 [8]
-0.035935488 0.23848239 -1.1375388 0.16255522 -1.1714095 -1.4794569 -1.024977 -0.72330934
00000000: 1731 13bd ba34 743e df9a 91bf e074 263e
00000010: bff0 95bf d85e bdbf 7232 83bf cd2a 39bf

running_mean f4 [8]
-4.8390694 0.7499446 -3.679596 0.7668613 1.9745793 0.7359486 -5.7683344 1.3294163
00000000: a8d9 9ac0 5ffc 3f3f 807e 6bc0 0651 443f
00000010: 04bf fc3f 2167 3c3f 3296 b8c0 502a aa3f

running_var f4 [8]
42.29066 31.508259 48.85779 50.677834 56.266846 44.375973 56.178932 52.58137
00000000: a329 2942 ea10 fc41 616e 4342 1ab6 4a42
00000010: 4011 6142 ff80 3142 3ab7 6042 5353 5242

weight f4 [8, 8, 3, 3]
0.78891164 0.6381427 0.44051373 0.48216227 -0.60209584 -0.124416925 -0.18742292 0.29707286
-0.20895031 0.89391226 0.5988033 -0.5692625 -0.10856576 -0.14953162 0.687034 1.1406026
0.22478873 -0.21354388 -0.69272757 1.1729953 -0.45361996 0.37958127 -0.07479229 -0.8358305
0.061685663 0.60184616 -0.58125156 -0.15023728 1.4945467 -1.1812702 0.085692815 0.018768148
0.036601014 -0.9002712 1.0137187 -0.6373674 -1.5155435 -0.65595394 0.76861393 -0.5017321
1.2354935 0.13380253 -0.8359019 0.10457876 -1.8124182 -0.2299151 0.03013064 0.73316956
-0.5352923 -0.29530603 0.17078875 0.05576137 -0.6265091 0.025674663 -0.5543764 -0.08520621
-0.47185013 0.0043089227 0.18107705 -0.48583817 1.5005742 0.19839948 -0.9548037 0.42369628
0.101544164 0.32392082 1.0865939 0.3721485 -0.7327895 0.6070314 0.79204935 -0.095941216
-0.848548 -0.12785256 -0.99781114 -0.44671658 0.7469221 -1.8009516 0.4814873 0.5916485
0.15848544 -0.7390564 0.38844928 -0.39897949 0.19146219 0.13092661 0.45985776 -0.9035924
-1.0253125 -0.018812217 -0.29083276 -0.28811938 0.2693361 0.78499824 -0.3643219 0.5228757
-0.5415735 -0.3906419 -0.5944126 0.65167075 0.5439468 0.029804874 0.1810193 -0.014158108
0.18873863 0.1731326 -0.13656417 0.52962863 -0.12202577 -0.84241056 -0.70977366 -0.013117875
-0.14221482 -1.2826049 0.7819408 -0.9493205 0.42716393 -0.4330733 -0.5546167 0.6250211
-1.0997356 -0.09247264 -1.0950032 -0.68006057 1.0812021 -1.4867492 -0.39184982 1.4291784
-0.24498652 0.47953892 -0.55330694 1.1537064 0.9185819 -0.18792073 -1.855814 -0.3280609
0.44475022 -0.59648573 -0.6208093 -0.355748 0.27021843 -0.6568365 -1.3045372 1.0751739
0.11708503 0.27610433 0.19372293 -0.7311606 0.29538468 -0.12100125 -0.44189477 0.30905378
0.50532025 -0.52359754 -1.0744301 -0.064107515 -0.27556765 0.730409 0.6037108 0.6297173
-0.7293546 -0.52326673 0.29472664 -0.7353082 -1.0303891 0.13021675 -0.0826244 -0.85796934
0.6219438 -0.17808925 0.20584325 -0.9999293 0.36857662 -0.16318382 0.5592325 -0.7989152
-1.63035 -1.2914362 -0.7172195 0.8859275 -0.09760751 -1.0048926 0.6733309 -0.46115386
-0.31107572 1.3826292 0.8576794 -1.245517 -0.50670683 0.18061568 -0.71469635 -0.94249696
0.31138173 -0.49948418 -0.641929 -0.11904506 0.15905422 -0.11232085 -0.3573843 -0.117993124
-0.0054675927 -0.3661303 -0.4807611 -0.7862463 -0.18642144 -0.05060235 -0.16009054 0.7244777
-0.62713856 -0.71086764 -0.9946514 -0.6732741 0.0029277331 0.25571948 0.30451304 -0.24181089
-0.82559663 -0.68011147 1.0028142 -0.3938513 -0.03179809 -0.8438775 -0.069380455 -0.104130246
0.9121033 -0.21777065 -0.5127281 0.20837557 0.7375492 -0.19881877 0.08487075 0.30615008
-0.42997408 1.0592552 1.7368693 -0.57758784 -0.75553256 0.0790274 0.44314444 0.008803721
0.018185636 -0.2924515 0.45955375 -0.91467065 -0.43398046 -0.7008901 0.7687513 -0.21485008
-0.3697132 0.24137329 -0.9028242 0.53540623 0.4423138 -0.98940605 -0.72840476 -0.6717161
00000000: 1df6 493f 525d 233f 048b e13e f9dd f63e
00000010: f422 1abf 4dce febd cbeb 3fbe ef19 983e
00000020: 12f7 55be 6fd7 643f 2c4b 193f 30bb 11bf
00000030: ba57 debd d11e 19be 76e1 2f3f 44ff 913f
00000040: 042f 663e 3fab 5abe 9856 31bf b624 963f
00000050: e040 e8be 7a58 c23e b32c 99bd fdf8 55bf
00000060: 1baa 7c3d 9712 1a3f e7cc 14bf cdd7 19be
00000070: 4e4d bf3f dd33 97bf b77f af3d a9bf 993c
00000080: f2ea 153d 2c78 66bf 89c1 813f 832a 23bf
00000090: 54fd c1bf 99ec 27bf e2c3 443f 8471 00bf
000000a0: a724 9e3f 8803 093e abfd 55bf 642d d63d
000000b0: 52fd e7bf dd6e 6bbe 88d4 f63c 00b1 3b3f
000000c0: eb08 09bf 5a32 97be 3fe3 2e3e 0966 643d
000000d0: e662 20bf ac53 d23c 9deb 0dbf 9880 aebd
000000e0: 5796 f1be dd31 8d3b 436c 393e c8bf f8be
000000f0: d112 c03f 3c29 4b3e 046e 74bf b8ee d83e
00000100: 63f6 cf3d f3d8 a53e 8215 8b3f 408a be3e
00000110: 1898 3bbf 6966 1b3f bfc3 4a3f d47c c4bd
00000120: 713a 59bf c8eb 02be 8d70 7fbf 09b8 e4be
00000130: 4936 3f3f 9585 e6bf 8185 f63e 4776 173f
00000140: 024a 223e cd32 3dbf d3e2 c63e 0a47 ccbe
00000150: aa0e 443e a011 063e 7a72 eb3e d551 67bf
00000160: 713d 83bf 141c 9abc 08e8 94be 6284 93be
00000170: 6ce6 893e a5f5 483f 6688 babe 2fdb 053f
00000180: 90a4 0abf 3702 c8be 6d2b 18bf e5d3 263f
00000190: 1940 0b3f 5a29 f43c 205d 393e 69f7 67bc
000001a0: b344 413e ac49 313e 7ad7 0bbe be95 073f
000001b0: a6e8 f9bd 38a8 57bf bab3 35bf 5bec 56bc
000001c0: c3a0 11be 662c a4bf 462d 483f ab06 73bf
000001d0: 3bb5 da3e c9bb ddbe 5cfb 0dbf 6201 203f
000001e0: 23c4 8cbf 4c62 bdbd 1129 8cbf 7318 2ebf
000001f0: d564 8a3f cc4d bebf 8aa0 c8be 51ef b63f
00000200: bfdd 7abe 2086 f53e 86a5 0dbf a7ac 933f
00000210: 2f28 6b3f 4b6e 40be 508b edbf 99f7 a7be
00000220: 4db6 e33e 4ab3 18bf 5ced 1ebf 9a24 b6be
00000230: 125a 8a3e 7026 28bf 13fb a6bf 4c9f 893f
00000240: 47ca ef3d 8c5d 8d3e 4e5f 463e 572d 3bbf
00000250: a93c 973e 81cf f7bd 0840 e2be 4c3c 9e3e
00000260: ab5c 013f 7d0a 06bf ed86 89bf cd4a 83bd
00000270: 3417 8dbe 16fc 3a3f ca8c 1a3f 2735 213f
00000280: fcb6 3abf cff4 05bf 69e6 963e 283d 3cbf
00000290: cae3 83bf 8a57 053e fb36 a9bd e1a3 5bbf
000002a0: b537 1f3f 075d 36be 93c8 523e 5efb 7fbf
000002b0: 13b6 bc3e a919 27be dc29 0f3f b585 4cbf
000002c0: 4faf d0bf c84d a5bf b29b 37bf 25cc 623f
000002d0: 72e6 c7bd 52a0 80bf 6a5f 2c3f 5c1c ecbe
000002e0: 5145 9fbe fef9 b03f e190 5b3f 1a6d 9fbf
000002f0: 8ab7 01bf 51f3 383e 57f6 36bf 7b47 71bf
00000300: 6d6d 9f3e 64bc ffbe 7555 24bf e5cd f3bd
00000310: 1cdf 223e 7908 e6bd 13fb b6be 61a6 f1bd
00000320: 7e29 b3bb 6e75 bbbe 5226 f6be 7047 49bf
00000330: 43e5 3ebe 6944 4fbd c6ee 23be 5f77 393f
00000340: 278c 20bf 6cfb 35bf 79a1 7ebf b15b 2cbf
00000350: 36df 3f3b aaed 823e 22e9 9b3e 469d 77be
00000360: 4d5a 53bf c91b 2ebf 375c 803f e1a6 c9be
00000370: b73e 02bd 5b08 58bf 5717 8ebd 3d42 d5bd
00000380: 9a7f 693f 45ff 5ebe 2642 03bf 6860 553e
00000390: 06d0 3c3f 2697 4bbe b7d0 ad3d b4bf 9c3e
000003a0: 9025 dcbe ad95 873f bc51 de3f ccdc 13bf
000003b0: 956a 41bf 1ed9 a13d d4e3 e23e 7b3d 103c
000003c0: 0bfa 943c 34bc 95be a14a eb3e db27 6abf
000003d0: b032 debe 896d 33bf e3cc 443f a901 5cbe
000003e0: 0c4b bdbe 8f2a 773e 7d1f 67bf 6210 093f
000003f0: f476 e23e b749 7dbf bc78 3abf 96f5 2bbf

weight f4 [8]
2.1750135 2.1964715 1.8609949 2.0904405 2.1422255 2.3743117 2.2696345 1.8955392
00000000: 6c33 0b40 fd92 0c40 1535 ee3f c7c9 0540
00000010: 391a 0940 b9f4 1740 b141 1140 07a1 f23f

bias f4 [8]
-1.1999234 -1.5742153 -0.9375957 -1.3741137 -1.0758928 -1.3303688 -1.8937675 -0.8691526
00000000: 1797 99bf e37f c9bf 4606 70bf f5e2 afbf
00000010: dbb6 89bf 8649 aabf f966 f2bf c980 5ebf

running_mean f4 [8]
1.2856005 -6.044179 -7.1008306 -2.2336829 -5.0318265 -7.882918 -2.1623435 -7.716491
00000000: 8f8e a43f ea69 c1c0 013a e3c0 a9f4 0ec0
00000010: b904 a1c0 dd40 fcc0 d663 0ac0 7fed f6c0

running_var f4 [8]
54.61764 46.09067 47.040215 51.694855 49.337193 51.116 40.137035 42.11471
00000000: 7778 5a42 d95c 3842 2e29 3c42 88c7 4e42
00000010: 4959 4542 c976 4c42 538c 2042 7775 2842

weight f4 [16, 8, 3, 3]
0.32299203 0.9769018 0.48919022 -0.3498101 -0.16387945 0.18666168 0.07045612 0.39723343
0.17950986 -0.5071444 -0.094962865 -0.17169353 0.276465 -0.5853669 -0.2884921 0.18041074
0.5349583 0.39086157 0.43482298 -0.16834153 -0.28743 -0.7677819 0.67729676 0.27288517
-0.32259953 -0.42838356 -0.45440248 -0.40052897 -0.5721321 -0.003559148 -0.19640349 -0.23993583
-0.6958762 0.77817106 -0.4203285 0.060220197 -0.7219374 -0.51237464 0.5696183 -0.5473339
0.045227826 -0.51984215 -0.6956544 0.23791763 -0.35710463 -0.14406005 0.66617894 -0.7381663
0.090997435 -0.50075334 0.43199992 -0.78097093 0.16402103 -0.4709168 0.9167887 0.2737117
-0.2365867 -0.4314527 -0.17923518 -0.052115925 0.123588204 -0.33627775 0.68205166 0.4139768
0.13459267 -0.5221309 -0.8022628 -0.88016355 -0.3653529 0.5853068 0.12206785 0.23612472
-0.690487 0.2222707 -0.06184797 -0.094452076 0.30565923 0.33713448 -0.08448883 -0.1222125
-0.25962007 -0.22164959 -0.59728205 -0.033576 -0.38092634 0.044260785 0.12730232 -0.2765901
-0.4609327 0.12133051 -0.05370161 -0.4694895 0.23532571 -0.27754384 0.14645627 0.086356774
-0.5600647 -0.42452595 0.43715212 0.62714887 -0.13627349 -1.1619126 -0.3553926 0.032859832
-0.29588053 0.20212243 -1.0554004 0.6202205 -0.78028756 -1.0141681 -0.08144844 -0.0044922563
0.3040481 1.0573374 0.14598778 -0.27681178 0.31628212 -0.5542076 -0.3619564 -1.2591181
-0.04414546 -0.017824706 -0.15092243 -0.38221788 0.30117485 -0.6696273 -0.06331754 -0.0405678
-0.6844695 -0.32949293 0.40786383 0.28421226 0.3467554 -0.24381338 -0.41650948 -0.38322404
-0.43378055 -1.0042337 0.017812692 -0.042399324 -0.05937539 -1.0402608 0.50005686 -0.12802367
-0.34357527 -0.025607014 -0.7350504 -0.18255259 -0.2511787 -0.29411685 -0.15276349 -0.06256652
0.7402502 -0.36986 -0.27875802 -0.42182696 -0.58898544 0.17661163 -0.16662136 -0.31926918
-1.0457231 0.96383375 0.19433239 0.65555 -0.05619041 -0.3137663 -0.03308559 -0.6235665
0.61491114 -0.21312481 0.24292572 -1.1065472 -0.35103336 0.12787399 0.10016906 -0.67908436
-0.4143005 0.41072854 -0.23548606 0.9043125 1.2830995 -0.2980775 0.038689196 0.23430167
-0.7929845 -0.7983234 -0.18493247 0.30084297 -0.6833576 0.39726916 0.26509973 0.55552405
-0.46971586 -0.41346428 0.3808708 -0.12401981 -0.70249075 -1.3881682 -0.050938837 -0.06742685
-0.49088836 0.49564987 -0.4394748 -0.35865995 0.08670905 -0.4818986 -0.19119477 0.64806384
0.16150479 -0.1724003 -0.07601104 0.12954845 -0.5664496 0.40551242 -0.06923988 -0.28532863
-0.17971401 -0.9434314 -0.42626166 -0.082080714 -0.27662393 0.14240165 -0.75355494 0.044091642
-1.247388 0.4476914 -0.2583416 -0.35989094 -0.1658063 -0.3647722 -0.013278936 -0.5955367
-0.23112282 -1.1381148 0.030845616 0.082982905 -0.32665214 0.11280903 0.14859627 0.2885375
-0.033806413 -0.1407589 -0.2999581 -0.16741511 -0.10383293 -0.73049915 -0.4268626 -0.31980044
-0.59115034 -0.3526675 0.37325725 -0.15073879 0.38479716 -0.50060487 -0.2131062 0.25826997
00000000: 365f a53e 3d16 7a3f 2477 fa3e 4f1a b3be
00000010: 04d0 27be 3d24 3f3e 4c4b 903d 2e62 cb3e
00000020: 6fd1 373e 37d4 01bf e47b c2bd 6ed0 2fbe
00000030: d28c 8d3e 9bda 15bf 3db5 93be 98bd 383e
00000040: 07f3 083f 021f c83e 1ea1 de3e b961 2cbe
00000050: 062a 93be 5b8d 44bf 5263 2d3f 9bb7 8b3e
00000060: c42b a5be 1755 dbbe 71a7 e8be 2212 cdbe
00000070: 4077 12bf 9840 69bb ff1d 49be bdb1 75be
00000080: f124 32bf 3836 473f 4c35 d7be 74a9 763d
00000090: e4d0 38bf fc2a 03bf 81d2 113f 131e 0cbf
000000a0: d040 393d 6014 05bf 6816 32bf aea0 733e
000000b0: 6bd6 b6be 7a84 13be b48a 2a3f 77f8 3cbf
000000c0: dd5c ba3d 5f31 00bf 182f dd3e b6ed 47bf
000000d0: 21f5 273e 021c f1be aab2 6a3f f123 8c3e
000000e0: c943 72be 5ee7 dcbe 6d89 37be 8277 55bd
000000f0: d01b fd3d 992c acbe f09a 2e3f c4f4 d33e
00000100: a9d2 093e 5faa 05bf 1861 4dbf 6652 61bf
00000110: 890f bbbe abd6 153f b5fe f93d aeca 713e
00000120: c2c3 30bf ee9a 633e 4c54 7dbd 1770 c1bd
00000130: 5e7f 9c3e e49c ac3e 7b08 adbd 8c4a fabd
00000140: ecec 84be 1cf8 62be 7ae7 18bf fd86 09bd
00000150: c708 c3be cc4a 353d 8a5b 023e 389d 8dbe
00000160: 5fff ebbe 217c f83d 38f6 5bbd ee60 f0be
00000170: 39f9 703e 3a1a 8ebe a2f8 153e d2db b03d
00000180: 6660 0fbf 775b d9be 67d2 df3e d48c 203f
00000190: 478b 0bbe 8db9 94bf 05f6 b5be 0898 063d
000001a0: a77d 97be 2ff9 4e3e 5c17 87bf c5c6 1e3f
000001b0: edc0 47bf 43d0 81bf 71ce a6bd c733 93bb
000001c0: 31ac 9b3e d556 873f d27d 153e 46ba 8dbe
000001d0: bbef a13e 8de0 0dbf 5952 b9be c82a a1bf
000001e0: dfd1 34bd 1e05 92bc 698b 1abe 10b2 c3be
000001f0: 9733 9a3e b26c 2bbf a0ac 81bd 6c2a 26bd
00000200: 6539 2fbf 4cb3 a8be 87d3 d03e 4584 913e
00000210: ec89 b13e 37aa 79be bb40 d5be f135 c4be
00000220: 7c18 debe bb8a 80bf eceb 913c eaaa 2dbd
00000230: 9c33 73bd 4427 85bf ba03 003f a318 03be
00000240: 19e9 afbe cdc5 d1bc 432c 3cbf 11ef 3abe
00000250: 7f9a 80be 7c96 96be 086e 1cbe e022 80bd
00000260: 0981 3d3f 4a5e bdbe 5fb9 8ebe b4f9 d7be
00000270: c0c7 16bf aed9 343e ca9e 2abe 4077 a3be
00000280: 41da 85bf cfbd 763f 12ff 463e 20d2 273f
00000290: ea27 66bd faa5 a0be c184 07bd 0ea2 1fbf
000002a0: d16a 1d3f 643d 5abe 85c1 783e 57a3 8dbf
000002b0: a5ba b3be 66f1 023e 7025 cd3d 79d8 2dbf
000002c0: 321f d4be 034b d23e 4223 71be 0681 673f
000002d0: 9b3c a43f 9d9d 98be 9078 1e3d c7ec 6f3e
000002e0: 0801 4bbf ec5e 4cbf f05e 3dbe 1708 9a3e
000002f0: 86f0 2ebf dd66 cb3e 27bb 873e d336 0e3f
00000300: 997e f0be 97b1 d3be 7f01 c33e 19fe fdbd
00000310: 6fd6 33bf 7faf b1bf 3ea5 50bd 1717 8abd
00000320: b855 fbbe d2c5 fd3e d702 e1be 47a2 b7be
00000330: 8494 b13d 6abb f6be 90c8 43be 83e7 253f
00000340: 8361 253e b489 30be adab 9bbd 59a8 043e
00000350: d702 11bf 539f cf3e a3cd 8dbd 9816 92be
00000360: f306 38be b884 71bf f83e dabe ef19 a8bd
00000370: a7a1 8dbe bdd1 113e fae8 40bf 7099 343d
00000380: 69aa 9fbf cf37 e53e 5a45 84be a043 b8be
00000390: 20c9 29be 6cc3 babe e58f 59bc 1875 18bf
000003a0: 76ab 6cbe bfad 91bf f2af fc3c f1f2 a93d
000003b0: f33e a7be 6c08 e73d 9f29 183e 30bb 933e
000003c0: 9878 0abd 1a23 10be 1c94 99be de6e 2bbe
000003d0: 5ca6 d4bd fe01 3bbf bc8d dabe e2bc a3be
000003e0: a155 17bf d690 b4be 931b bf3e 455b 1abe
000003f0: 2204 c53e a427 00bf 8338 5abe f63b 843e

weight f4 [16]
2.300097 2.3028078 2.5718634 2.4164958 2.3486638 2.3608437 2.2210798 2.7373092
3.2200599 3.746401 3.9164877 3.8548892 4.268335 3.800913 3.9547787 3.2975261
00000000: ca34 1340 3461 1340 6999 2440 dea7 1a40
00000010: 8250 1640 1018 1740 2c26 0e40 1330 2f40
00000020: 7615 4e40 09c5 6f40 bca7 7a40 81b6 7640
00000030: 3396 8840 2942 7340 181b 7d40 ab0a 5340

bias f4 [16]
-0.6424396 -0.06072332 -0.42654216 0.21590286 -0.3427201 -0.38670748 -0.38497558 -0.750622
-0.21533391 -0.30942217 0.013190804 0.18746254 -0.6550352 -0.4937389 -0.8002734 -0.16082545
00000000: ec76 24bf 04b9 78bd bc63 dabe a415 5d3e
00000010: 0279 afbe 86fe c5be 851b c5be c328 40bf
00000020: 7e80 5cbe 956c 9ebe 3e1e 583c 2ef6 3f3e
00000030: 63b0 27bf 58cb fcbe b8de 4cbf 6daf 24be

running_mean f4 [16]
-2.568767 -3.1677268 -4.0311146 -2.0461802 -0.5470893 -4.5453334 -1.6864164 -1.863798
-2.137119 -2.3105903 -2.9265292 -2.1137688 -1.1589735 1.0750083 -2.7919219 0.055225838
00000000: ae66 24c0 09bc 4ac0 e4fe 80c0 9ef4 02c0
00000010: 0b0e 0cbf 5f73 91c0 7edc d7bf ef90 eebf
00000020: 8fc6 08c0 b6e0 13c0 414c 3bc0 fd47 07c0
00000030: 3e59 94bf df99 893f d9ae 32c0 7d34 623d

running_var f4 [16]
10.671938 12.387253 9.091799 6.3281884 11.231963 9.777494 7.221246 10.902463
6.860536 7.009782 14.350074 5.1985707 9.0275755 14.295426 7.1594033 8.839265
00000000: 42c0 2a41 3032 4641 0278 1141 8580 ca40
00000010: 1fb6 3341 9e70 1c41 7214 e740 7d70 2e41
00000020: 8389 db40 2250 e040 e799 6541 b15a a640
00000030: f370 1041 11ba 6441 d519 e540 a16d 0d41

weight f4 [64, 96]
0.06438622 0.092951596 0.0004220434 0.1405613 -0.07049522 -0.286894 -0.16072525 0.015560345
0.11167671 -0.3661068 -0.09862433 0.13002425 -0.0038477217 -0.05255107 -0.120058425 0.0018657042
0.13260417 0.016874246 -0.1284577 0.033481818 -0.051007506 -0.006895523 0.16827302 0.018303681
0.14625551 -0.03591303 0.099485 0.010930514 -0.10348193 -0.11202939 -0.069316804 -0.16925848
-0.08025444 0.14118505 -0.08681895 -0.13411498 0.092141464 0.10253796 -0.13686565 0.00024213309
0.08257272 -0.16239536 0.36679694 -0.008260408 0.11889217 0.17716673 0.053909346 -0.047827285
0.09792277 0.16322409 -0.11238916 0.02882257 -0.012633395 0.0823972 -0.027462916 0.051461518
0.07933918 0.08803981 -0.032893453 0.0082458565 -0.048538305 -0.27949354 -0.12224429 -0.17734987
0.03734829 0.1470404 -0.017581204 -0.087703995 0.14225176 -0.07303836 -0.00042925955 -0.014820917
-0.11364774 -0.27429387 0.22958848 -0.10121585 0.17504875 -0.089039296 -0.07323613 -0.093580805
-0.09400056 0.14686948 -0.09024886 -0.13696064 -0.12751016 0.142085 -0.17740874 -0.09244395
-0.21760133 0.090665415 0.02506455 -0.12128979 0.05981653 0.12895842 0.10867856 0.05623038
-0.21214764 -0.07315064 0.035640124 -0.07779794 0.034606762 -0.026128288 -0.15616421 -0.21902344
0.02802032 0.08654083 -0.06718183 -0.25222775 0.1834988 0.1203044 0.05720871 -0.01766818
0.07159203 -0.0894487 0.07972449 0.25620535 0.027429776 -0.00056598434 0.009050949 0.06547311
0.078635365 0.16507804 0.13172615 -0.012549854 0.044869173 -0.13998188 -0.2287722 0.09751159
0.035915136 -0.16669087 -0.12095573 -0.17570283 0.020312006 0.0022814989 -0.0663867 0.07725279
0.030479742 -0.04379879 0.10778008 -0.2147727 0.053785246 0.0030052492 0.14094989 0.090485334
0.014599322 0.15919559 0.023207732 0.048511155 -0.0057069766 0.02672112 0.10759021 0.15030819
0.007957058 0.114795215 -0.050501954 -0.13618645 0.07899595 -0.22153929 0.08901551 0.040264662
0.07921217 -0.052155867 0.09667977 -0.07026362 0.13749364 0.009939828 0.098919086 0.050276756
-0.09911459 -0.086080626 0.15719822 -0.07128256 -0.07236101 -0.0013431932 0.0014716978 0.037980996
-0.021376861 -0.0084983725 0.06736248 0.09172665 -0.13752194 0.021015558 0.010647104 0.16147846
-0.15337572 -0.107845955 -0.21730958 0.06581128 -0.22211191 0.14197299 -0.121271834 -0.01931672
0.048574615 0.009281663 0.034232505 0.065127596 0.0127059 -0.014800114 0.036462143 -0.039750434
-0.06576982 -0.19278444 -0.12561025 0.021775672 -0.0484191 -0.124677226 0.061850805 -0.0661602
0.08938237 0.034972046 -0.082515106 0.06915786 -0.045446698 0.049715474 -0.109258674 -0.11872996
0.032597564 -0.023112718 0.025089405 0.11540574 0.15739664 -0.02688157 -0.15527 -0.12317438
-0.062155385 -0.12185983 0.124019906 0.06635822 0.13850525 0.12293321 -0.09697273 -0.05175473
-0.123170234 0.08079673 0.11065146 -0.010853277 0.057442483 -0.09025904 0.01830445 0.020515794
-0.13548228 -0.13085921 -0.010653973 0.01106816 -0.0996975 -0.09202378 -0.11346272 0.18297692
-0.10177167 0.058936447 0.13426454 -0.06281951 0.15809388 -0.1346579 -0.05999085 0.04169264
00000000: ecdc 833d 685d be3d b545 dd39 4def 0f3e
00000010: cc5f 90bd c5e3 92be 2995 24be d1f0 7e3c
00000020: c2b6 e43d 5a72 bbbe 8dfb c9bd 1425 053e
00000030: 0f2a 7cbb ca3f 57bd 31e1 f5bd a58a f43a
00000040: 63c9 073e dc3b 8a3c 6a8a 03be 3b24 093d
00000050: 3fed 50bd d7f3 e1bb c34f 2c3e 9af1 953c
00000060: 01c4 153e 8b19 13bd cbbe cb3d e615 333c
00000070: 56ee d3bd aa6f e5bd f8f5 8dbd 1852 2dbe
00000080: 715c a4bd d092 103e 22ce b1bd 7055 09be
00000090: aab4 bc3d 6cff d13d 8226 0cbe 1be5 7d39
000000a0: e31b a93d f84a 26be cfcc bb3e aa56 07bc
000000b0: bd7d f33d 326b 353e 0cd0 5c3d 8be6 43bd
000000c0: bc8b c83d 3724 273e 4a2c e6bd 4f1d ec3c
000000d0: 4dfc 4ebc ddbf a83d e9f9 e0bc 50c9 523d
000000e0: 947c a23d 374e b43d 49bb 06bd a119 073c
000000f0: 1ad0 46bd c719 8fbe 375b fabd 349b 35be
00000100: 85fa 183d c291 163e 7506 90bc 279e b3bd
00000110: 72aa 113e 2395 95bd 3e0e e1b9 6ed3 72bc
00000120: 25c0 e8bd 3f70 8cbe 3e19 6b3e 414a cfbd
00000130: fb3f 333e 3c5a b6bd d3fc 95bd 4ba7 bfbd
00000140: 5e83 c0bd f464 163e 65d4 b8bd 693f 0cbe
00000150: 0692 02be bb7e 113e a3aa 35be 4153 bdbd
00000160: e2d2 5ebe caae b93d 2c54 cd3c c866 f8bd
00000170: 2e02 753d ad0d 043e dd92 de3d d451 663d
00000180: 3b3d 59be 01d0 95bd 61fb 113d 8754 9fbd
00000190: d2bf 0d3d fe0a d6bc 83e9 1fbe ae47 60be
000001a0: df8a e53c 523c b13d a196 89bd ff23 81be
000001b0: 1ce7 3b3e 2762 f63d ae53 6a3d dcbc 90bc
000001c0: d89e 923d e130 b7bd 9846 a33d 592d 833e
000001d0: 69b4 e03c 915e 14ba 6e4a 143c c416 863d
000001e0: 940b a13d 380a 293e 38e3 063e e79d 4dbc
000001f0: bdc8 373d 6957 0fbe 4243 6abe 28b4 c73d
00000200: c01b 133d 03b1 2abe a3b7 f7bd 71eb 33be
00000210: 5d65 a63c 3385 153b c0f5 87bd b636 9e3d
00000220: a7b0 f93c 5c66 33bd cdbb dc3d 60ed 5bbe
00000230: eb4d 5c3d b7f3 443b 2b55 103e 6050 b93d
00000240: ff31 6f3c 2b04 233e 241e be3c a2b3 463d
00000250: 9701 bbbb 40e6 da3c 4258 dc3d 64ea 193e
00000260: 525e 023c c119 eb3d 23db 4ebd 7674 0bbe
00000270: a1c8 a13d 32db 62be c44d b63d 8fec 243d
00000280: fd39 a23d 64a1 55bd 0b00 c63d 5fe6 8fbd
00000290: 22cb 0c3e a9da 223c 1796 ca3d 00ef 4d3d
000002a0: 97fc cabd 0a4b b0bd 92f8 203e 97fc 91bd
000002b0: 0232 94bd 160e b0ba fce5 c03a f691 1b3d
000002c0: 871e afbc c23c 0bbc 57f5 893d 2fdb bb3d
000002d0: 8dd2 0cbe d228 ac3c 3171 2e3c 9c5a 253e
000002e0: 860e 1dbe 57de dcbd 6786 5ebe 10c8 863d
000002f0: 4e71 63be 5e61 113e 5e5d f8bd 193e 9ebc
00000300: 2df6 463d 1e12 183c 6237 0c3d 9e61 853d
00000310: 682c 503c 2d7c 72bc 5459 153d 5ad1 22bd
00000320: 54b2 86bd 4969 45be f99f 00be e562 b23c
00000330: 1b53 46bd c656 ffbd 4557 7d3d 007f 87bd
00000340: 1b0e b73d d93e 0f3d aefd a8bd a3a2 8d3d
00000350: 5126 3abd 74a2 4b3d 03c3 dfbd b128 f3bd
00000360: 0685 053d e256 bdbc 4c88 cd3c d859 ec3d
00000370: 962c 213e bd36 dcbc 19ff 1ebe d942 fcbd
00000380: a596 7ebd a691 f9bd 26fe fd3d d2e6 873d
00000390: 52d4 0d3e 68c4 fb3d a399 c6bd c5fc 53bd
000003a0: ad40 fcbd c278 a53d 3c9d e23d f1d1 31bc
000003b0: cf48 6b3d bbd9 b8bd 37f3 953c bd10 a83c
000003c0: debb 0abe f5ff 05be 008e 2ebc 3a57 353c
000003d0: 342e ccbd f776 bcbd 245f e8bd 4d5e 3b3e
000003e0: aa6d d0bd 5867 713d a57c 093e 84a7 80bd
000003f0: 5de3 213e c3e3 09be f7b8 75bd e7c5 2a3d

bias f4 [64]
0.024059357 -0.015824666 -0.060666878 0.18432908 -0.023180952 0.2321408 0.23756498 0.29206604
0.22751382 0.49317652 0.30981642 -0.049285546 0.072131775 -0.04674257 0.04683672 0.07180411
-0.06419293 0.06589773 0.0042570997 0.14174248 0.027188925 0.1606988 -0.0010602046 0.46848094
0.31749353 -0.053556774 0.08090674 0.08238945 0.21206525 0.048577257 0.39187777 0.117372945
-0.05508629 -0.027827313 0.106947474 0.089829355 -0.08985028 0.07634205 0.14208238 0.28666797
0.033204082 0.0101460535 -0.09871196 0.058479518 -0.08872509 -0.13094112 0.0036718412 0.19302906
-0.07110491 -0.02347123 0.1054894 0.23948157 0.02107459 0.1374621 0.116726324 0.24392624
0.046623964 0.09734049 0.09771323 0.010635515 0.21332753 -0.03158654 -0.014053377 0.049051788
00000000: 2118 c53c bba2 81bc d57d 78bd c3c0 3c3e
00000010: fbe5 bdbc 51b6 6d3e 3c44 733e ae89 953e
00000020: 62f9 683e a281 fc3e 42a0 9e3e a4df 49bd
00000030: d3b9 933d 2375 3fbd dcd7 3f3d 090e 933d
00000040: 9577 83bd 64f5 863d 247f 8b3b f124 113e
00000050: 4fbb de3c 3a8e 243e 90f6 8aba bcdc ef3e
00000060: 838e a23e 595e 5bbd 6fb2 a53d cdbb a83d
00000070: a227 593e f2f8 463d 34a4 c83e 3a61 f03d
00000080: 29a2 61bd 1bf6 e3bc 4707 db3d 74f8 b73d
00000090: 6c03 b8bd 3959 9c3d 0b7e 113e 25c6 923e
000000a0: 0101 083d a23b 263c 7f29 cabd 3888 6f3d
000000b0: 80b5 b5bd 6e15 06be 46a3 703b 69a9 453e
000000c0: 739f 91bd bd46 c0bc d40a d83d a83a 753e
000000d0: 9ea4 ac3c ddc2 0c3e 360e ef3d cdc7 793e
000000e0: c5f8 3e3d 735a c73d e01d c83d 9540 2e3c
000000f0: 8872 5a3e e360 01bd 2340 66bc 87ea 483d

weight f4 [1, 64]
-0.86555904 0.5173739 -0.5869444 -1.0722243 -0.799051 -0.74885106 -0.9096884 0.50955755
0.5766526 1.5152314 0.7002206 -1.3101431 -0.9816828 -0.005916109 -0.48279342 -0.8634192
0.3814025 -0.6296149 -0.32042542 -1.247509 -0.17466074 0.36296675 -0.87796503 0.8430699
0.62165 -0.1021472 -0.8664969 1.083812 0.37498853 0.0052990727 1.1094433 -0.7647871
0.162388 -0.11647288 0.4600181 0.0005925723 -0.116153605 -0.72388226 0.51726496 -1.2571357
0.3831794 -1.1110301 -0.7902829 0.24048397 -0.45469037 -0.33100104 0.20285103 -0.7190066
0.6057881 0.28565723 0.7948502 1.3123636 0.022996193 0.88654757 0.3967667 0.5152128
0.76061535 -0.71835023 -0.674748 -0.12208504 0.7092442 -0.5936659 1.1544108 0.49636725
00000000: 4795 5dbf 9e72 043f fd41 16bf a53e 89bf
00000010: 9b8e 4cbf b4b4 3fbf 57e1 68bf 5d72 023f
00000020: 819f 133f 1af3 c13f a841 333f c5b2 a7bf
00000030: 904f 7bbf ebdb c1bb b330 f7be 0a09 5dbf
00000040: 3047 c33e 712e 21bf cd0e a4be 60ae 9fbf
00000050: 44da 32be c7d6 b93e 51c2 60bf 6ed3 573f
00000060: 7424 1f3f 8d32 d1bd bed2 5dbf 5aba 8a3f
00000070: 7ffe bf3e d8a3 ad3b 3d02 8e3f 16c9 43bf
00000080: 0a49 263e 5589 eebd 7e87 eb3e db56 1b3a
00000090: f1e1 edbd 5950 39bf 7a6b 043f d3e9 a0bf
000000a0: 1730 c43e 3c36 8ebf fb4f 4abf 6e41 763e
000000b0: 2dcd e8be f878 a9be 2eb8 4f3e d110 38bf
000000c0: ee14 1b3f aa41 923e 4d7b 4b3f 88fb a73f
000000d0: 8362 bc3c c8f4 623f 0125 cb3e fce4 033f
000000e0: b0b7 423f cde5 37bf 49bc 2cbf b907 fabd
000000f0: 0791 353f 7dfa 17bf bcc3 933f d923 fe3e

weight f4 [64, 96]
-0.20117223 0.1663547 0.08821979 0.44684294 -0.07648213 -0.025531396 -0.017837564 -0.0068336152
0.288712 0.07595326 -0.34082735 -0.09299863 -0.21673927 0.45655355 0.33559403 -0.30291352
-0.14395444 0.15189339 0.09657782 -0.15355828 0.24545343 0.25830957 -0.09266214 -0.110844806
-0.31872943 -0.210183 0.11780364 0.032921016 -0.040845007 0.20180735 -0.48758912 0.0036317892
0.038757663 0.33753186 -0.17139994 0.026133705 0.08732273 0.12550154 0.15485872 -0.1649997
0.3203517 0.27074894 -0.053990465 0.11085829 -0.23072708 -0.038763247 0.38780576 -0.43838406
0.07736444 -0.17726304 -0.40432236 -0.35750952 0.20121247 0.22491689 0.14275019 0.09173385
-0.03830523 -0.8277663 0.25871855 0.033860784 -0.35675675 0.24467911 -0.2473681 0.22529653
-0.10107746 -0.21685702 0.130502 -0.023261605 -0.0742055 0.20178777 0.01192889 -0.13848522
-0.046838164 -0.26882747 0.17563191 0.64604384 0.12089097 0.14462855 -0.21142839 -0.07637493
-0.34892023 -0.014421534 -0.02055924 -0.009658682 0.22939734 0.2830112 -0.04103107 -0.11767706
0.09227609 0.2293675 0.14217614 -0.13150713 0.35762578 -0.13974606 0.118288904 -0.30976442
-0.08612883 0.30470258 -0.020734614 0.18034418 -0.10265868 -0.00094163674 -0.10800157 -0.1385659
0.17016844 -0.06668538 -0.07010107 -0.10256198 0.1022411 0.09650656 -0.005725696 -0.31747526
-0.18809277 0.06692728 0.024152882 -0.21432886 0.24153788 0.29400036 -0.2042528 -0.025095083
-0.115188025 -0.19222844 -0.20349067 -0.09383095 0.058119338 0.07578451 -0.22929148 0.023685407
-0.01346343 0.3141505 0.13189104 -0.07837654 -0.059242576 0.2981919 0.0776902 -0.067638375
0.05506781 0.15271707 -0.035372846 0.0068492093 -0.12055724 0.024959665 0.11439945 -0.29723194
0.015294454 -0.09665077 -0.21389227 -0.3275228 -0.07920248 0.1734783 0.06644298 -0.05081217
-0.19842654 -0.46163687 0.06985704 0.036177732 -0.23306057 -0.021903729 -0.15180065 -0.11889821
-0.17227252 0.062929206 0.057410065 0.15675706 0.02875835 -0.122719906 0.023533525 0.07592935
-0.16528808 -0.14519602 -0.11932098 0.42624125 -0.1527028 0.13923669 0.04477779 -0.16812785
0.054588985 0.14656596 0.12907943 -0.33867782 0.016678961 0.03947008 -0.17078176 -0.2576872
0.23872997 0.004651102 0.16796237 -0.19680479 0.38212994 -0.0069350787 0.33712453 -0.25253212
0.20354497 0.013950542 -0.13799953 0.007671837 0.14592278 -0.028619325 0.07957728 0.17980069
-0.2648291 -0.06221721 -0.14334449 -0.0018079869 0.19311643 -0.0055050435 -0.17883395 -0.3243068
0.0014125678 0.33328578 -0.43153787 0.16995232 0.22335799 -0.023084654 0.09257331 0.023375876
-0.38210592 0.083734035 -0.16660301 0.20085983 -0.07394886 0.09846174 0.09861549 0.10628161
0.085742086 0.10230831 -0.07321619 -0.1485259 -0.003183941 -0.07767326 -0.02698592 0.18972848
0.12658903 -0.19321124 0.3514945 0.003739686 0.2939879 -0.16941006 0.18642776 0.21604046
-0.009092453 -0.06326516 0.10949522 -0.16678415 -0.10719841 -0.095912695 0.1804836 -0.0031134756
-0.19922493 0.19541597 -0.09913443 -0.030987302 -0.09544289 -0.06947149 -0.050162457 0.2658545
00000000: 1800 4ebe e358 2a3e 94ac b43d 99c8 e43e
00000010: aaa2 9cbd 3827 d1bc 1520 92bc 85ec dfbb
00000020: 0fd2 933e 628d 9b3d ec80 aebe 1176 bebd
00000030: e6f0 5dbe 63c1 e93e fbd2 ab3e 7b17 9bbe
00000040: cb68 13be f189 1b3e 98ca c53d 623e 1dbe
00000050: 2558 7b3e 2741 843e a6c5 bdbd 9a02 e3bd
00000060: 8130 a3be 363a 57be 0943 f13d 30d8 063d
00000070: 184d 27bd 96a6 4e3e 48a5 f9be 5003 6e3b
00000080: 5bc0 1e3d fad0 ac3e 7783 2fbe 5a16 d63c
00000090: 42d6 b23d 7a83 003e 4993 1e3e aef5 28be
000000a0: 2305 a43e 9b9f 8a3e 1b25 5dbd ac09 e33d
000000b0: b843 6cbe 36c6 1ebd 7a8e c63e e073 e0be
000000c0: 3f71 9e3d 7184 35be 5703 cfbe 7d0b b7be
000000d0: a40a 4e3e 9d50 663e 1b2d 123e f5de bb3d
000000e0: f2e5 1cbd 7ee8 53bf c276 843e 9bb1 0a3d
000000f0: d2a8 b6be 298d 7a3e 104e 7dbe 22b4 663e
00000100: b301 cfbd c40f 5ebe 51a2 053e 1f8f bebc
00000110: 0ef9 97bd 74a1 4e3e 6471 433c 12cf 0dbe
00000120: 60d9 3fbd c1a3 89be dad8 333e 2163 253f
00000130: af95 f73d 8219 143e af80 58be 766a 9cbd
00000140: aca5 b2be 4c48 6cbc da6b a8bc 733f 1ebc
00000150: 23e7 6a3e d8e6 903e 3210 28bd ac00 f1bd
00000160: 3ffb bc3d 50df 6a3e 9f96 113e cea9 06be
00000170: ba1a b73e 9719 0fbe 7441 f23d 7199 9ebe
00000180: 5064 b0bd fa01 9c3e a3db a9bc 25ac 383e
00000190: b73e d2bd 2cd8 76ba ed2f ddbd 38e4 0dbe
000001a0: a340 2e3e 5892 88bd 2691 8fbd 040c d2bd
000001b0: c863 d13d 3ba5 c53d 9f9e bbbb 1e8c a2be
000001c0: 649b 40be 2b11 893d 44dc c53c 0679 5bbe
000001d0: b555 773e 3787 963e a527 51be 3494 cdbc
000001e0: b3e7 ebbd 88d7 44be dc5f 50be 712a c0bd
000001f0: 8b0e 6e3d e934 9b3d 63cb 6abe e607 c23c
00000200: b895 5cbc 56d8 a03e 720e 073e e183 a0bd
00000210: 58a8 72bd 9cac 983e 0a1c 9f3d fd85 8abd
00000220: c98e 613d dd61 1c3e 1ee3 10bd 556f e03b
00000230: b7e6 f6bd 3678 cc3c 424a ea3d c92e 98be
00000240: 9795 7a3c d7f0 c5bd 9306 5bbe 12b1 a7be
00000250: e934 a2bd 4ca4 313e 4213 883d 6c20 50bd
00000260: 5430 4bbe ab5b ecbe 3511 8f3d 1a2f 143d
00000270: 6ea7 6ebe 736f b3bc a171 1bbe e880 f3bd
00000280: 3568 30be 07e1 803d d126 6b3d ec84 203e
00000290: a296 eb3c 9354 fbbd 61c9 c03c d980 9b3d
000002a0: 4741 29be 44ae 14be 8f5e f4bd 4b3c da3e
000002b0: 1f5e 1cbe 1094 0e3e ea68 373d b529 2cbe
000002c0: b398 5f3d 6315 163e 662d 043e 2e67 adbe
000002d0: 51a2 883c 61ab 213d 6ae1 2ebe 94ef 83be
000002e0: a175 743e 4568 983b 54fe 2b3e 3287 49be
000002f0: 89a6 c33e a83f e3bb 969b ac3e e44b 81be
00000300: 186e 503e d090 643c c04f 0dbe 0964 fb3b
00000310: c86c 153e 1373 eabc 6af9 a23d ac1d 383e
00000320: ae97 87be 79d7 7ebd e6c8 12be f9f9 ecba
00000330: 50c0 453e a763 b4bb 3f20 37be 8a0b a6be
00000340: e925 b93a 6fa4 aa3e 88f2 dcbe fb07 2e3e
00000350: f5b7 643e 071c bdbc 1397 bd3d c47e bf3c
00000360: 63a3 c3be c07c ab3d fb99 2abe 33ae 4d3e
00000370: 8072 97bd 4fa6 c93d ebf6 c93d 2caa d93d
00000380: 8c99 af3d 0587 d13d 5ff2 95bd 2c17 18be
00000390: aaa9 50bb 2813 9fbd 9311 ddbc 2f48 423e
000003a0: 8ea0 013e 2bd9 45be 16f7 b33e 8515 753b
000003b0: 9585 963e d579 2dbe ebe6 3e3e b639 5d3e
000003c0: 83f8 14bc 2a91 81bd 083f e03d 77c9 2abe
000003d0: d78a dbbd e06d c4bd b1d0 383e 740b 4cbb
000003e0: 9f01 4cbe 201b 483e fe06 cbbd 15d9 fdbc
000003f0: 9077 c3bd 1247 8ebd 2677 4dbd 151e 883e

bias f4 [64]
0.053944875 0.021423383 0.076146595 0.13530333 0.0574387 -0.07651761 0.021161705 0.11731246
0.05570329 -0.014296974 -0.000617653 0.045195255 0.046243522 0.07254059 0.03137614 -0.04124738
0.072881915 0.1261296 0.009188396 0.0055093933 -0.0010292942 -0.087464355 0.0018775491 0.089854345
0.018787185 -0.08401225 0.06724773 0.19044185 0.08393857 -0.015589999 -0.08199277 -0.10184277
0.14518213 0.10064296 0.116631545 0.069444284 0.029276595 0.031542763 0.06839182 0.036599267
0.10706772 0.066988476 -0.021918176 0.073755905 -0.090077706 0.017117692 0.121323355 0.106401734
0.09610063 -0.042435046 0.07968567 0.0547544 0.103821866 -0.005346715 0.05920897 0.08120718
-0.020583238 0.0564079 0.17828995 -0.14839438 0.08397501 -0.023738455 0.0913588 0.060050096
00000000: 4df5 5c3d 1780 af3c bff2 9b3d f58c 0a3e
00000010: d844 6b3d 44b5 9cbd 505b ad3c 8441 f03d
00000020: 2229 643d db3d 6abc fee9 21ba a91e 393d
00000030: d969 3d3d 2990 943d 4484 003d 03f3 28bd
00000040: 1d43 953d 1e28 013e ed8a 163c 2488 b43b
00000050: 62e9 86ba 8320 b3bd 1818 f63a 8e05 b83d
00000060: 95e7 993c 9d0e acbd 2eb9 893d 3003 433e
00000070: fce7 ab3d 326d 7fbc d3eb a7bd f192 d0bd
00000080: a0aa 143e e51d ce3d 85dc ee3d ce38 8e3d
00000090: 78d5 ef3c fc32 013d 0311 8c3d 1de9 153d
000000a0: 5246 db3d 4131 893d bf8d b3bc 560d 973d
000000b0: a97a b8bd 673a 8c3c 6178 f83d 27e9 d93d
000000c0: 68d0 c43d 5fd0 2dbd 3e32 a33d 2646 603d
000000d0: 8fa0 d43d 7f33 afbb 1b85 723d f34f a63d
000000e0: 2e9e a8bc f80b 673d a491 363e b2f4 17be
000000f0: 17fb ab3d 2677 c2bc 531a bb3d 17f7 753d

weight f4 [8, 64]
-0.47021258 -0.4770685 -0.6676536 -0.2445146 0.1176233 0.41459274 -0.25196972 0.35539094
0.6344093 0.12948094 -0.15747032 0.041379333 0.55753124 0.11665119 0.38920772 0.26659518
0.72563154 0.9391109 -0.06673437 -0.24280019 0.2805747 0.28175706 -0.56437075 0.17038964
0.21165366 -0.09129163 0.45795128 0.3340756 0.66363615 -0.3654615 -0.049520858 -0.2292474
-0.6641975 -0.4354549 -0.35563272 -0.03502115 0.18769366 -0.34710655 0.0077605243 0.03708974
0.0044027385 0.21586514 0.7738489 0.3560267 -0.18907447 -0.204133 -0.28890082 -0.07161407
-0.2505228 0.038609944 0.18054536 -0.31937024 -0.103277095 0.02241011 0.19021629 -0.06254387
0.27425548 0.006403623 -0.725633 0.21996753 -0.4195363 -0.49493998 0.087424815 -0.036326848
-0.30381688 0.11979529 -0.18845181 -0.25010055 0.2116224 -0.27682632 -0.044206213 -0.2139068
0.85736877 0.38663694 0.80200714 -0.32393724 -0.64121395 -0.32522032 0.16907822 -0.036462177
0.030136567 -0.11364237 -0.33611622 -1.1982667 0.5877159 -0.28090653 -0.51766044 0.44448128
-0.077540375 0.86927706 0.10467197 0.32881907 -0.054977007 0.6079274 0.62787056 0.3643867
0.0051320666 0.028058762 0.18746178 0.4237592 0.057572242 0.6268128 0.18781298 0.6126577
0.3938121 0.4475438 0.7284377 0.41252103 -0.27812505 1.1167787 -0.15562579 0.06970946
-0.8634262 -0.27298293 -0.45117402 0.83587223 0.16771731 0.15110804 0.14868808 0.13131721
-0.37034535 0.56375897 -0.2511061 0.4581158 -0.0375263 -0.47053277 -0.5614884 -0.14387715
0.26875943 -0.279106 0.535187 0.39670345 -0.25747126 -0.5802427 -0.17582332 0.44319656
-0.084119365 0.5524612 -0.4910546 -0.63851404 -0.2588419 0.097904995 0.029129673 -1.0227473
-0.5659041 0.31045243 -0.32644463 1.4943924 0.08565854 -0.55787116 0.9043026 -1.2651439
-0.3362204 -0.45094162 0.049735207 0.16527654 -0.36917457 -0.6501511 -0.58828336 -0.41969055
-0.6399415 0.20154515 -0.9128172 -0.09666801 0.34063044 -0.5739488 -0.122995116 -0.4357692
-0.44860968 -0.68319774 -0.5603574 0.44220293 0.72696674 -0.32765844 0.20415267 0.2448167
0.63976717 0.2614176 -0.45730615 0.077581726 -0.7864697 0.8938578 0.039496534 0.17301175
-0.3655297 0.49162036 0.066469274 0.65155303 1.2168179 -0.20647095 0.67696196 0.22843066
0.6126576 0.71724194 -0.38731757 -0.45868173 -0.61912656 -0.21845484 0.008510205 0.4845933
-0.81694096 -0.4881991 -0.22946492 -0.11309948 0.28446728 -0.35071546 -0.19959512 -1.0959498
-1.7425287 -0.9938609 0.2934188 0.5817584 -0.31262285 0.08967821 0.046450827 0.5472594
-0.36331293 0.21920247 -0.32865354 0.4370046 0.19381088 -0.25513527 0.44882426 0.022831406
1.0884218 0.22799382 0.43773472 -0.19293307 0.47504255 0.2761342 -0.12267897 -0.23559758
0.029848808 0.050697878 -1.7292448 -0.2410297 0.014270982 -0.42742133 0.40923288 -0.8795761
-0.47030804 -0.10988073 -0.8562188 -0.1380131 0.96625274 0.27566206 -0.37210205 -0.040062666
-0.9492377 0.49426565 0.51540506 0.24188598 0.5511974 0.057375096 0.6990054 0.49549502
00000000: b4bf f0be 5342 f4be 59eb 2abf 0962 7abe
00000010: 7ce4 f03d 8045 d43e 2d02 81be cdf5 b53e
00000020: a668 223f a796 043e e63f 21be 607d 293d
00000030: 5eba 0e3f d2e6 ee3d 3c46 c73e 2a7f 883e
00000040: fdc2 393f 9269 703f 08ac 88bd 9da0 78be
00000050: 7da7 8f3e 7642 903e 9a7a 10bf 9f7a 2e3e
00000060: bdbb 583e 1bf7 babd 9778 ea3e f50b ab3e
00000070: 0fe4 293f c51d bbbe 62d6 4abd d5bf 6abe
00000080: d908 2abf f2f3 debe 7e15 b6be 5672 0fbd
00000090: c432 403e f3b7 b1be ff4b fe3b 69eb 173d
000000a0: d944 903b c00b 5d3e f61a 463f 2249 b63e
000000b0: bd9c 41be 3e08 51be cfea 93be 66aa 92bd
000000c0: 8644 80be 7625 1e3d e2e0 383e 7f84 a3be
000000d0: f182 d3bd 6895 b73c 0fc8 423e 0017 80bd
000000e0: 376b 8c3e 7cd5 d13b 16c3 39bf 2b3f 613e
000000f0: 76cd d6be c668 fdbe c80b b33d 76cb 14bd
00000100: e38d 9bbe 3c57 f53d 83f9 40be 2e0d 80be
00000110: 8bb3 583e 2ebc 8dbe 9311 35bd 620a 5bbe
00000120: 857c 5b3f 47f5 c53e 5750 4d3f 1adb a5be
00000130: 9926 24bf 4783 a6be d722 2d3e 5d59 15bd
00000140: f6e0 f63c 55bd e8bd 6d17 acbe ce60 99bf
00000150: 8d74 163f fbd2 8fbe 6585 04bf 0d93 e33e
00000160: 7dcd 9ebd f188 5e3f 425e d63d f95a a83e
00000170: 922f 61bd 21a1 1b3f 20bc 203f e590 ba3e
00000180: e52a a83b 7ddb e53c fbf5 3f3e f7f6 d83e
00000190: dfd0 6b3d ce76 203f 0c52 403e 23d7 1c3f
000001a0: bda1 c93e 7624 e53e e57a 3a3f f535 d33e
000001b0: 6866 8ebe 9bf2 8e3f 5e5c 1fbe d5c3 8e3d
000001c0: 8009 5dbf 6bc4 8bbe 4800 e7be b9fb 553f
000001d0: 16be 2b3e 11bc 1a3e b041 183e 0578 063e
000001e0: e89d bdbe 8252 103f fb90 80be 278e ea3e
000001f0: 2db5 19bd ace9 f0be b4bd 0fbf 8854 13be
00000200: d69a 893e fbe6 8ebe 0402 093f b71c cb3e
00000210: 46d3 83be c98a 14bf 070b 34be a9ea e23e
00000220: c646 acbd 196e 0d3f 826b fbbe a875 23bf
00000230: ed86 84be 6a82 c83d 5aa1 ee3c 62e9 82bf
00000240: 17df 10bf 9ff3 9e3e c023 a7be 4048 bf3f
00000250: bf6d af3d a5d0 0ebf 6080 673f 3cf0 a1bf
00000260: 1525 acbe d2e1 e6be 25b7 4b3d 413e 293e
00000270: 7304 bdbe 4d70 26bf bd99 16bf aee1 d6be
00000280: 35d3 23bf da61 4e3e 63ae 69bf e1f9 c5bd
00000290: 1d67 ae3e 4fee 12bf dde4 fbbd 241d dfbe
000002a0: 2bb0 e5be 0ce6 2ebf 9573 0fbf 6c68 e23e
000002b0: 7e1a 3a3f d9c2 a7be 660d 513e 3bb1 7a3e
000002c0: c8c7 233f 87d8 853e 0824 eabe 2be3 9e3d
000002d0: 1456 49bf ddd3 643f 1ec7 213d fe29 313e
000002e0: b526 bbbe aab5 fb3e 0b21 883d 2ecc 263f
000002f0: b0c0 9b3f 1f6d 53be 614d 2d3f bae9 693e
00000300: 21d7 1c3f 2b9d 373f 7d4e c6be 55d8 eabe
00000310: 147f 1ebf a0b2 5fbe 636e 0b3c 9d1c f83e
00000320: 0b23 51bf 3cf5 f9be daf8 6abe b3a0 e7bd
00000330: b2a5 913e fa90 b3be aa62 4cbe 1548 8cbf
00000340: 2e0b dfbf ab6d 7ebf fd3a 963e 1eee 143f
00000350: 1a10 a0be 36a9 b73d 3943 3e3d 3119 0c3f
00000360: 2704 babe 9d76 603e 4745 a8be 11bf df3e
00000370: 5c76 463e 17a1 82be 4bcc e53e ee08 bb3c
00000380: 6851 8b3f 3677 693e c41e e03e 3f90 45be
00000390: c738 f33e 7661 8d3e 1d3f fbbd 7e40 71be
000003a0: 7d85 f43c 94a8 4f3d e557 ddbf 7dd0 76be
000003b0: d6d0 693c f8d6 dabe f986 d13e e62b 61bf
000003c0: 37cc f0be 2609 e1bd 2831 5bbf 4e53 0dbe
000003d0: 575c 773f 9423 8d3e 2984 bebe c018 24bd
000003e0: 3e01 73bf 6310 fd3e 96f1 033f f5b0 773e
000003f0: 461b 0d3f 2602 6b3d 05f2 323f 86b1 fd3e

bias f4 [8]
0.20324089 -0.1909659 0.05333873 0.09078876 -0.025065098 -0.08959756 0.1388097 -0.2366945
00000000: 611e 503e 918c 43be b679 5a3d 75ef b93d
00000010: 5255 cdbc ed7e b7bd 2124 0e3e 0b60 72be
