models/model-doom-health-gathering.pth (torch, 76527 bytes, 27 tensors)

weight f4 [8, 1, 3, 3]
00000000: c857 2e40 433b 1740 191f 8c3f 51c6 aebf
00000010: 2da3 c4bf 0ffb bc3e 7dbf f0bb e682 fcbf
00000020: 6bfd f1be 9340 b13f 218c c8bf e0a2 323f
00000030: 5dda edbe 8e65 5ec0 b26a 0ebf 6dc1 2d3d
00000040: 305f b0bf e348 4440 7b58 aa3e 7264 91bf
00000050: e719 f9bf d2eb 393e 5604 a5bf fcb2 6dc0
00000060: 0a6a 6c40 d281 3c40 511f e2bf 9f83 7540
00000070: 6c2c 4bbf 29e4 32c0 8bff 4040 c5d4 c83f
00000080: ba02 29c0 37d1 01bf ac0b c9be 0a8c 88bf
00000090: 2e7c 0e3f 477b 5f3e 2f11 ebbc c5ad 3dc0
000000a0: 11b3 4fbf 4a78 b73f 3b5e 51be ec74 6540
000000b0: 7a2f 9e3f 927e 2f40 91c5 33c0 da6f 3a40
000000c0: e69b 4340 fa94 0bc0 4cbe 603f 089d e5be
000000d0: 2432 87c0 42b5 a13f 7b76 e3bf 1062 5abf
000000e0: 1ca6 9940 fc96 91bf 0dc6 f83e 4379 8040
000000f0: 75e3 103e a8b3 12c0 ed0f f7bf 5563 2a3f
00000100: 5f13 5d3f 4437 4040 5a3e 60bf 29bd 74c0
00000110: 013e 5ac0 27dc f83f 3d11 c5bd 5d94 4240
2.7241077 2.362992 1.094699 -1.3654271 -1.5362297 0.36910293 -0.007347046 -1.9727447
-0.47263655 1.3847831 -1.5667764 0.6977978 -0.4645566 -3.4749484 -0.55631554 0.042420793
-1.3779049 3.0669487 0.3327063 -1.1358778 -1.946103 0.18156365 -1.2891948 -3.7140493
3.693972 2.9454236 -1.7665807 3.8361585 -0.7936466 -2.7951758 3.015597 1.5689932
-2.6407914 -0.5070986 -0.39266717 -1.0667737 0.55658233 0.2182437 -0.028694717 -2.963731
-0.8113261 1.4333584 -0.20446102 3.5852613 1.2358239 2.7421002 -2.8089335 2.9130769
3.0563903 -2.1809678 0.8779037 -0.44846368 -4.2248707 1.263344 -1.7770532 -0.8530588
4.801527 -1.1374202 0.485886 4.0148025 0.14149268 -2.2922153 -1.9301735 0.6655782
0.8635768 3.0033731 -0.8759514 -3.8240454 -3.4100344 1.9442185 -0.096224286 3.0403054

weight f4 [8]
00000000: 4444 1440 11ef 5540 10d9 3a40 889d 0e40
00000010: 85d6 2740 c625 4c40 90a1 4340 8c5d 2c40
2.3166666 3.3427165 2.9194984 2.228365 2.6224682 3.1898055 3.056736 2.6932096

bias f4 [8]
00000000: dd38 8d3e 19bf 9d3f 08bb ff3f 6bcf ca3e
00000010: ea18 8ebf fa2c 5ebe 9b63 023c 5f92 c23e
0.27582446 1.2323943 1.9978952 0.39611372 -1.1101353 -0.21696845 0.007958318 0.38002297

running_mean f4 [8]
00000000: 6db4 fa3d c504 9abe b00c b6be 72c4 483b
00000010: cf1d df3e a499 0c3e d5c8 403e bb11 353e
0.12241445 -0.30081764 -0.35556555 0.0030634669 0.4357743 0.13730484 0.18826611 0.17682545

running_var f4 [8]
00000000: 6a32 aa3d d9ea 843d 927b 223e b5c6 7e3d
00000010: 58d7 b43d 6787 8a3d 67f9 c83d 8951 273d
0.08310397 0.06490106 0.15867451 0.06220122 0.08830136 0.06764107 0.09813195 0.040849242

weight f4 [8, 8, 3, 3]
00000000: df9d 94be ff07 c5bf 0ab2 4f3e 4d90 723f
00000010: 4986 e93e c050 4cbf 6c88 9ebe c0b2 b73e
00000020: c4a7 293f 3089 883f 2948 93bf 2547 0b3f
00000030: 336e 12bf b918 33bf bee1 e1bd cfee 09bf
00000040: 7f92 09bf 6db6 283c b14c 14bd 9b56 7d3f
00000050: 6085 90bf b868 783e a5f3 3dbf 2d20 8ebe
00000060: 0d00 ac3e cc11 91bf 424d 89bf 6c18 34be
00000070: 4de5 f9be d010 f7be b4d2 633f 98cc 92bf
00000080: 9512 803f 91fa a83f eeba e23e 97d8 dcbf
00000090: c103 e53e 8e97 533f cc2c 07bf a025 32be
000000a0: fa8a 69bf d635 12bf 58a5 70bf da41 b93e
000000b0: e5f2 0640 21a8 873f 771b aebf 2902 e03e
000000c0: efe5 1dbf 52bd 82bf 02d4 ee3e 7c97 3abf
000000d0: 62e2 a83f dc54 adbe 3ba1 aabf 3a2f 78bf
000000e0: 58f3 5dbd 4d0f 4f3f 6680 1cbe 4373 55c0
000000f0: b17f 7a3f 4444 2dbf b486 2440 b016 01bf
00000100: 60ee 9dbf a8e0 b13f be12 3ebf 9e83 90bf
00000110: f97d 003c cad1 123d 4496 0e40 91bb 023f
00000120: cb9e bb3e 5452 babe ea03 38be af0a 96be
00000130: 5fb4 583e 07d5 4dbf 2fa3 153f 718a 833c
00000140: 870c f5bc ac9d 3e3f a47d 30bf 44bc 893f
00000150: 4037 a83f 4b7d 283e f5af 95bc 2aed a3be
00000160: 1b03 b63c a00c d4bf 1669 2ebe d71b f53f
00000170: 629b 7e3f c283 793f f5d0 c83f 362d 40be
00000180: 182a 32be 5555 41bf 45cc 13c0 7f1b 4ebf
00000190: eb8e f93e 895d e43d 8fdf 25be 75d2 f23b
000001a0: eab3 15be 13ad 50be 918e bb3f dfe6 a23f
000001b0: 58b5 903f 8cc8 d3be 68d2 c1bf 8974 013f
000001c0: a656 173d 89e2 193f 5bdd 2d3f 460b 2e3e
000001d0: ed09 b7bd 3656 fcbe 836c 8dbf 569f fa3e
000001e0: 98a7 5b3f 0897 eebe efa7 99bf 1d89 be3e
000001f0: 2efa ac3f 0041 fc3e 880b 9abf 584d 4d3f
00000200: 8a48 2dbf 3f71 60bf 9922 31bf 4560 97bf
00000210: b63e c13f 77f5 0d3f b11a 523f d32f f3be
00000220: f2e7 c3bf a9e1 c33e 4f7e 483e 630d 883f
00000230: 0105 71be 584d e03f 4241 b6be 3c52 9fbf
00000240: caff 16bf 194c 7dbf d68b f73e c190 58bf
00000250: 6654 593e d786 b63e 97dd 313f 1b3e a5bf
00000260: a234 a83d 8690 85bf e459 963f d3bd 823d
00000270: a990 8ebf 06b5 6dbf 3954 c6be ab8a c6be
00000280: bb2f 8dbf f686 8fbf 71de 0340 6ef5 a43f
00000290: 0a60 86bf 2cec 99bf e7ae ac3e 0a5f 0b3e
000002a0: 6549 0bc0 2cda 00be 60a1 7dbf 10de c43f
000002b0: 0617 fc3e 7ca5 7cbf 719c 6fbe 6212 98bf
000002c0: 3155 5fbf 464d 8dbf 3d5f 4b3e a095 0d3f
000002d0: 0e2d a5bf 5fd5 fe3d 5bd6 11bf d3d3 72bf
000002e0: f252 90bf b6df 60bf 43df fd3f f01c a5bf
000002f0: 99c2 4b3f a50c 8bbf 35c2 0740 8846 e7bd
00000300: 759a cebf a0c3 da3e 70eb c6bf 4421 31bf
00000310: 2b15 3c3e ddbb 583e 308c 0bbf a3cf 05bf
00000320: 0865 f23f cda9 83bf 1bd7 953f 49b4 1cc0
00000330: 049d 07bf 8baa 0dbf 6e23 373e 6015 ebbe
00000340: c88e 92be 74e7 1f3f 8d9c 48bf bcfd 493f
00000350: c12c 1c3f 4d25 3e3f d9d1 4e3f 1743 d9bf
00000360: 2beb 313f a445 823f 8632 383f 6c99 1abf
00000370: 59e0 5dbe 5cd0 8fbf efb5 2ebf 2b75 3e3e
00000380: 27ac 34bf 6e95 e0be 212d 433d c04d 74bd
00000390: 0c9b a13e bb41 c7be 098d 61bf db7e 853c
000003a0: 66f9 42bf 2a96 dd3d 9197 193e 2e8c c33f
000003b0: e172 053f d3b0 30bf a578 cdbf fe3b 513f
000003c0: 68cc 123f d3eb 27bf 8c17 cebf d829 183f
000003d0: 5711 c5be 407a 4d3f bb1f 553b da3f d23d
000003e0: 3cd9 2fbe 49ea 3ebf 6416 b5be 2b0e 9c3f
000003f0: e1ea 113f eb53 9b3d 0a83 2abf afef 7fbf
-0.29026696 -1.5393065 0.2028276 0.94751436 0.45610264 -0.79810715 -0.30963457 0.35878563
0.66271615 1.0666866 -1.1506397 0.5440543 -0.571994 -0.699596 -0.11029385 -0.5388002
-0.5373916 0.0102974 -0.03620595 0.98960274 -1.1290703 0.24258697 -0.741999 -0.27758923
0.3359379 -1.1333556 -1.0726702 -0.17587441 -0.48807755 -0.48255014 0.8899338 -1.1468687
1.0005671 1.3201467 0.4428324 -1.7253598 0.44729427 0.8265313 -0.5280273 -0.17397165
-0.91227686 -0.571134 -0.94002295 0.36183053 2.108575 1.0598184 -1.3602132 0.43751648
-0.61678976 -1.0214026 0.46646124 -0.72887397 1.3194087 -0.33853805 -1.3330454 -0.9694706
-0.05418715 0.8088272 -0.15283355 -3.33516 0.9785109 -0.6768229 2.5707216 -0.50425243
-1.2338371 1.3896685 -0.7424735 -1.1290166 0.007842534 0.0358446 2.2279215 0.51067454
0.36644587 -0.36390936 -0.17970243 -0.29305026 0.21162556 -0.8040318 0.58452123 0.016057225
-0.0299132 0.7445934 -0.6894171 1.0760579 1.3141861 0.16454045 -0.01827238 -0.3201688
0.022218278 -1.6566353 -0.17032275 1.9149121 0.99455845 0.9746667 1.5688769 -0.18767247
-0.1739887 -0.7552083 -2.3093426 -0.80510706 0.4874185 0.11150653 -0.16198562 0.0074103423
-0.14619413 -0.20378523 1.4652883 1.2726706 1.1305342 -0.41363943 -1.5142336 0.50568444
0.03694787 0.6011129 0.67915887 0.16996488 -0.0893744 -0.49284524 -1.104874 0.4894969
0.858026 -0.46599603 -1.2004374 0.37213984 1.3513849 0.4926834 -1.2034769 0.8019614
-0.6768881 -0.876728 -0.69193417 -1.1826254 1.5097263 0.55452675 0.8207198 -0.47497424
-1.5305159 0.38258103 0.19579433 1.0629085 -0.23537065 1.7523603 -0.35596663 -1.2446971
-0.58984053 -0.9894424 0.48348874 -0.84595877 0.21223602 0.3564975 0.69478744 -1.2909578
0.08213164 -1.043473 1.1746182 0.06383862 -1.1137897 -0.92854345 -0.38736132 -0.3877767
-1.1030191 -1.1213062 2.0604517 1.2887399 -1.0498059 -1.2025199 0.3372719 0.13610473
-2.1763546 -0.12583226 -0.99074364 1.5380268 0.49236315 -0.9869001 -0.23399521 -1.188061
-0.87239367 -1.1039207 0.1986055 0.55306435 -1.2904375 0.12443041 -0.56967705 -0.9485447
-1.1275313 -0.87841356 1.9833759 -1.2899456 0.7959381 -1.0863234 2.1212285 -0.1129275
-1.6140887 0.42727375 -1.55406 -0.69191384 0.1836745 0.21165414 -0.54510784 -0.52269953
1.8937082 -1.0286194 1.170627 -2.4485037 -0.5297396 -0.5533835 0.17884609 -0.45914745
-0.28624558 0.62462544 -0.7836388 0.7890279 0.6100579 0.74275666 0.8078895 -1.6973599
0.6949946 1.0177503 0.7195209 -0.60390353 -0.21667613 -1.1235461 -0.6824636 0.18599384
-0.70575184 -0.43864006 0.04765046 -0.05964446 0.31563604 -0.38917336 -0.8810583 0.016295841
-0.761618 0.10819657 0.14999224 1.5277154 0.52128416 -0.6901981 -1.6052443 0.81732166
0.5734315 -0.65594214 -1.6100936 0.5943885 -0.38489792 0.80264664 0.0032520134 0.10266085
-0.17172712 -0.7457624 -0.35368645 1.2191824 0.5699902 0.075843655 -0.666062 -0.99975103

weight f4 [8]
00000000: fa85 3940 15ea 2740 144e 3640 67ec 3140
00000010: 3c3c 3e40 7197 5e40 3e16 4940 8abf 6440
2.8988023 2.6236622 2.8485155 2.7800539 2.9724264 3.4779932 3.1419826 3.5741906

bias f4 [8]
00000000: 2b36 2abf 5cc2 623f aeb2 a53d e3d4 8d3e
00000010: 9d85 7dbf 8100 03bf ef19 65be 9581 253e
-0.66488904 0.8857782 0.08090721 0.27701482 -0.99032 -0.51172644 -0.22373174 0.16162713

running_mean f4 [8]
00000000: 8ba4 37c1 df66 ff40 660d b8c1 bded fec0
00000010: dee9 4e40 76d4 13c2 052e 27c1 5b64 3541
-11.477672 7.9813075 -23.006542 -7.966521 3.2330241 -36.95748 -10.448735 11.337001

running_var f4 [8]
00000000: 174b 6a43 7c4a b543 500d 5e43 b939 8f43
00000010: d352 9243 d653 9143 a7e0 4843 6b7e b543
234.29332 362.5819 222.052 286.45096 292.64706 290.65497 200.87755 362.98764

weight f4 [8, 8, 3, 3]
00000000: 192f ea3f b778 253f f0a8 1cc0 027c a23d
00000010: 943c 1bbe 4c28 e2be 849f 8d3e 3838 923e
00000020: 6025 68be a9b7 b8bf 07ca fabf 783b 46bf
00000030: 1885 b23f 191f ae3e a751 8abf 9162 07c0
00000040: d5ed 933f 7c19 493c 1dd6 7cbf 1b14 e63f
00000050: 394f 4cbf a08f 5e3f 0100 b1bf b1f9 973f
00000060: 15de f2be b61f b7bf 52c0 943e af06 debc
00000070: d706 83bf 81d5 59bf 5ba5 a93f 363e b4bf
00000080: 3b04 823d db57 66bf 1b61 8ebf c11c 813f
00000090: f4d7 9fbf ca8d b03e e782 bc3e bda8 cfbe
000000a0: c8d6 6bbd 2de6 b33f 4310 01bd 0ee4 77be
000000b0: 3e63 1d3f bad4 193f 6b35 9b3f 16c6 8b3f
000000c0: 7cd4 373e 4074 333e bbed 073f 7940 9f3e
000000d0: fdf5 2b3f 94f9 903f 31dc 543f a17f 843f
000000e0: 0d2b 9dbf c06c dabe 2ddd 01bf 026c 4bbf
000000f0: 884b 84be 437c 46bf 3ae9 283e e797 fd3e
00000100: fc7f 5c3d a4e4 0a3f cc43 0ebf 1d09 f4be
00000110: 5a05 fe3f 7c46 0ec0 5c30 c3bf 5a68 343f
00000120: 0a47 21be c225 56bf 25d7 9bbf 0530 413f
00000130: 2e3d cebe a169 e7bf 1d98 84be 51de 12bf
00000140: 32ae 3f3f ffa8 b13d a5f6 bb3e 16ff 57bf
00000150: 0095 523e 85cd 2bbe 67cb e0be d66a 50bf
00000160: e2db f23e 74f8 b9bf 761e 993f 11b5 b1bf
00000170: 0b6c 663f c741 8f3f 8040 8cbe 214d 1fbf
00000180: 555c 8dbf 7b25 a3bf 4480 6a3f f0d2 67bf
00000190: e7ed 3a3f b9a6 bdbf 6403 0e3f 9ef5 edbe
000001a0: 8e0f 4f3e 0443 39bf 1544 2dbf bcbd 263f
000001b0: f7f0 99be 193e 16be 3e9f 5dbe dcf0 94bf
000001c0: 0845 11bf 2cfa f03f 1e4d 1ec0 7030 c0bf
000001d0: e4c7 dfbf 1471 90bf f27b 953f ed02 12bc
000001e0: 8e71 0abe a395 263f 3032 043e bd3e 013f
000001f0: 8b55 e8be d436 22c0 7f13 2dbf 3da2 1e3f
00000200: 2024 303f 57a8 01c0 ad21 9abe 695a 3f3f
00000210: ec20 8cbf e967 05bf cc1a 9abd dd13 0a3f
00000220: 0001 34bf a65a a0bf 94e1 133e 737b 9cbf
00000230: f7f2 15bf c018 1b3e 8545 5bbf 4d1f e73f
00000240: 4901 a43e 9350 b33e 2d38 d3bf 667d 313f
00000250: 25d6 8dbf 3662 883f a760 f8bd 54ad 823d
00000260: e153 0cbf 5873 89bf 2851 693f efe7 60bf
00000270: 7c15 cb3f dce9 77be a2e2 1b3e 4d3c de3f
00000280: 64e0 d9bf 9bc0 b83e 4bf3 233e 8bc2 10bf
00000290: c6e5 44bf 9cf7 ba3f d342 50bd 1c89 55bf
000002a0: 8828 d53f 5cca 88bc e3ee e2bf d55c 2cbf
000002b0: 19d4 0ebf 4f58 3ebf 9fd9 27bf 677a 5bbe
000002c0: a3a9 e43f 1a5c b4bf 43b8 f1bd 692a 9f3e
000002d0: d32e d8bf afca e7be a951 ae3e 316f fd3e
000002e0: 1c4f 993f 6f8c 9c3f 16cb 253f 7498 8ebe
000002f0: f59b 1d3f 9970 423f e628 23bf bdcf 0fbf
00000300: c8b0 3ebf 0795 d63e aa14 9a3f 8988 fcbc
00000310: 52e7 a8be f134 c7be cca9 323e 556b ce3e
00000320: a851 0f3f e0ab c73f 73dc c0bf ae55 84bf
00000330: 92e6 31bf 60f2 9f3f 096b 5ebf f62c bf3d
00000340: 5312 b33e f953 18bf 48e2 b53f 9531 e63f
00000350: 16d0 eb3e ac21 60bf 25bd a73d f387 4f3e
00000360: 5561 8b3f 50ba 1d3f a4ea ff3e d91b 04c0
00000370: a958 23be c6d2 41bf ec27 72bc 257a a7be
00000380: 87a9 f03d 77a5 63bf a971 963f b3d6 5ebf
00000390: c98a cb3e 3a95 1b3f c9f4 d7bf 2292 1dbf
000003a0: cc8d 22bf 4539 0b3f ea6f 55bf e86b 7cbe
000003b0: 4f0b c33f cf71 fcbe 35a8 fcbe f077 2a3f
000003c0: cb3d 48bd 7dff 233e 654f 54be 0dcc f7be
000003d0: 0ad7 c23e 0636 373f 225d 06c0 fa89 1abf
000003e0: 00b9 ba3f 8332 05c0 1652 1fbe dd50 ce3f
000003f0: a4a5 fb3f 12d6 cbbf f0cf 3bbf 230d 5b3f
1.8295623 0.6463732 -2.4478111 0.07933809 -0.15159827 -0.4417137 0.27660763 0.28558517
-0.22670507 -1.4431049 -1.9592904 -0.7743449 1.3946867 0.340081 -1.0806168 -2.115391
1.1556956 0.012274142 -0.9876421 1.7974886 -0.79808384 0.86937904 -1.3828126 1.1873075
-0.4743506 -1.4306552 0.2905298 -0.027102796 -1.0236462 -0.85091406 1.3253587 -1.4081485
0.06348463 -0.89977807 -1.1123384 1.00869 -1.2487779 0.34483176 0.3681862 -0.40558425
-0.05757788 1.4054619 -0.03150965 -0.2420809 0.61479557 0.6009022 1.2125677 1.0919826
0.1795215 0.17524815 0.5309712 0.31103876 0.67172223 1.1326165 0.83148485 1.0351449
-1.2278763 -0.42661095 -0.5072811 -0.7946168 -0.25838876 -0.7753336 0.16495219 0.49529955
0.053832993 0.5425513 -0.555722 -0.47663203 1.9845383 -2.223052 -1.5249133 0.7047173
-0.15749756 -0.83651364 -1.2175032 0.75463897 -0.4028105 -1.807911 -0.25897303 -0.5737048
0.74875176 0.086748116 0.36711612 -0.84373605 0.20564651 -0.16777618 -0.43905184 -0.8141302
0.47433382 -1.4528947 1.1962421 -1.3883382 0.9000861 1.1191949 -0.2739296 -0.62227064
-1.1043802 -1.2745813 0.9160197 -0.9055624 0.7301926 -1.4816505 0.55473924 -0.46476454
0.20220777 -0.7236788 -0.6768201 0.6513326 -0.30066654 -0.14672126 -0.21642777 -1.1636004
-0.5674596 1.8826346 -2.4734569 -1.5014782 -1.7482877 -1.1284509 1.167845 -0.00891183
-0.1351988 0.6507208 0.1290977 0.50486356 -0.45377764 -2.5345964 -0.67607874 0.61966306
0.6880512 -2.0258996 -0.30103818 0.7474733 -1.0947547 -0.5211168 -0.07524642 0.5393656
-0.70314026 -1.2527664 0.1444152 -1.2225174 -0.5857386 0.1514616 -0.85652953 1.8056427
0.3203223 0.3502241 -1.6501518 0.6933197 -1.1080977 1.0654972 -0.1212781 0.06380716
-0.5481549 -1.0738325 0.9113946 -0.878539 1.5865932 -0.24210304 0.15223172 1.7362152
-1.7021604 0.36084446 0.16010778 -0.5654685 -0.76913106 1.4606814 -0.05084498 -0.8341234
1.6652994 -0.016698055 -1.7729152 -0.6732915 -0.55792385 -0.743535 -0.6556644 -0.21433412
1.7864269 -1.4090607 -0.11802723 0.31087044 -1.688929 -0.45271823 0.34046677 0.49498895
1.1977267 1.2230357 0.6476301 -0.27850688 0.61566097 0.7595306 -0.6373428 -0.5617636
-0.74488497 0.41910574 1.2037556 -0.030826824 -0.32988983 -0.3890758 0.17447585 0.40316263
0.5598397 1.5599327 -1.5067276 -1.0338647 -0.6949245 1.2495842 -0.8688207 0.093347475
0.34974918 -0.5950313 1.420968 1.7983881 0.46057194 -0.8755138 0.08190373 0.20266704
1.0889078 0.61612415 0.49983704 -2.0641997 -0.1595179 -0.7571224 -0.014780026 -0.32710376
0.11751085 -0.88924354 1.1753436 -0.87046355 0.39754322 0.60774577 -1.6871578 -0.61551106
-0.63497615 0.5438426 -0.8337389 -0.24650538 1.5237826 -0.4930558 -0.49347082 0.6658926
-0.048887055 0.1601543 -0.20733412 -0.48397866 0.38054687 0.7156681 -2.0994344 -0.60366786
1.4587708 -2.081208 -0.15558657 1.6118428 1.9659925 -1.5924704 -0.7336416 0.8556692

weight f4 [8]
00000000: 9e51 4940 a80c 3840 c5cf 2d40 0593 2540
00000010: 0d59 4440 a581 4e40 90bf 5240 88af 5f40
3.1456065 2.8757725 2.7158062 2.5870984 3.0679352 3.2266629 3.292942 3.4950886

bias f4 [8]
00000000: 5746 13bf c564 07be cb32 c2be 4021 5ebf
00000010: 9385 b8bf 5982 5fbf e550 ecbf eb58 a1bf
-0.57529205 -0.13222034 -0.37929377 -0.86769485 -1.4415764 -0.8730827 -1.8462187 -1.2605261

running_mean f4 [8]
00000000: 7e9f 16c1 cba4 e3c1 f3d0 8740 67d1 42c1
00000010: f02a edc0 f12a 17c0 4d58 e7c0 078c 6bc1
-9.4139385 -28.455465 4.2442565 -12.176124 -7.4114914 -2.361996 -7.229529 -14.721686

running_var f4 [8]
00000000: 8cdc 8143 a203 7d43 68e7 8343 7daa 2c43
00000010: b093 6d43 0125 3943 5d60 6943 dc01 8a43
259.72302 253.01419 263.80786 172.66597 237.5769 185.14455 233.37642 276.01453

weight f4 [16, 8, 3, 3]
00000000: 24c2 f13c 8038 0ebd fac7 f2bd 11f6 98bb
00000010: 0752 d6be 755b a7bf 322f 54be 66e3 3b3e
00000020: 0c02 433f 1d1c 603e a90f f1bd 87bb 373e
00000030: 31aa 6abe 0a73 223e f390 1f3f f58e 413e
00000040: 18e0 dbbf f6e5 aabf 5e38 abbe 93e9 2e3f
00000050: f1d8 b0bd 936f b23e 1120 9abf d099 3a3f
00000060: 0a17 59be 9198 4e3d 52fb c4be a01e da3f
00000070: 15cd 58bf 074a afbe d845 3ebf 4fc4 673f
00000080: 6cf4 fbbf 6eed 6ebf 0d27 ae3d 660f 183e
00000090: a081 bbbf c7a2 dbbd f0fd 34be b549 a33e
000000a0: 1dfa 59bf b4ba 2ebf 7428 cabc 6a02 633f
000000b0: 5004 cf3e 8bac 7bbf 6423 b63f 0204 9c3e
000000c0: 02b8 febe 229c 38be ed64 773f 9400 e1be
000000d0: 8dd0 b83e 3d97 d73d 886d 3b3f 1638 823e
000000e0: 35a6 193f 32b8 813f b383 29bf eb32 39bf
000000f0: c00d b3bf 2c95 37bf 777b 693e 4008 83be
00000100: d010 e6bd bf9c 27bf e6db 403f 40a5 8dbe
00000110: 77a9 d93f 8e7e 52be 9df3 dcbe b8b3 2a3e
00000120: ef14 febd b4b9 34bf 3e8e e53d dd32 673e
00000130: b7a6 12c0 7bcf 17bf 78d1 a53e d353 2d3f
00000140: 02f0 cfbd 7a5d 0d3f 1a13 1ebf 1470 c9be
00000150: 4170 c13e 26d8 0abf 8c5c 64bf 68be c93e
00000160: a521 89bd c272 1b3f b3a0 bebe 3aba e0bf
00000170: 3048 923c 21e2 20bf b83b 5a3f db9f 60bf
00000180: 821b 21bd 5906 e9bd f5cb 02bf 8bef bebf
00000190: 9d82 a93f b8fd d53d 924e 423e 3557 063f
000001a0: 8640 7ebf 117f aabf 82c9 ce3e 891c 63bf
000001b0: 120d 81be 85a8 10bf fd1d 2bbe 4f0a 37bf
000001c0: a357 1dbf dc56 073f 3d39 953c 27a8 4ebf
000001d0: c1f0 dfbe 318b 95bf 215b a03f 1f82 99bf
000001e0: 084b 1ebe 9492 13bf 01b6 633e f736 bc3d
000001f0: c13e 393e bb33 3ebf 0975 10bf d44e 1ebf
00000200: 52cd 2dbf 502a dbbe e2da 583f 3aa3 04be
00000210: 1e6f 113d 554e 5cbf 3b21 993f 42d3 78bf
00000220: 372d 873f 38a5 b93e da5a 61be 54c4 163e
00000230: 13b0 aebe 3a55 513f 54e1 1fbe b4d1 623f
00000240: 4b6d 8cbf dd17 e6bc ab65 4ebe 22bf 653e
00000250: fae5 67bf d3de a03e 24b6 d33c 3f6d d8be
00000260: 3071 96be b5d2 b1bc 6b62 963e fee0 a23f
00000270: 845f 0d3e 3d43 8dbe fd9c 153f f4a9 8bbe
00000280: bd92 ab3e 1985 d13e f4b4 65bf dbc0 d7bd
00000290: 78fe 863e 868d d53e 48cf 3abf e9f2 293e
000002a0: 1975 fc3d e79f 7f3f 8644 babf 9357 98bf
000002b0: ffb2 dfbe a3ad 10be 9d24 d6be 0a73 9c3e
000002c0: 8edc d1bd a35a e13e 76f1 e23e bc30 793f
000002d0: 6b43 e73f 045b 533f 2824 19bf 0f4d 92be
000002e0: ff22 8f3e 0f0c 223e 9fe3 58bf 941d 473e
000002f0: e370 073f 51ba 0c3f d3a2 cc3f 5b5e eabd
00000300: 3535 03bf 1364 6cbe 9b6a e9be e2c3 23bf
00000310: d9e0 83bf f1f2 613f c2fb c23d 004e 4a3d
00000320: 76d2 ffbe 1c57 033e ec39 82be 902a 1fbe
00000330: f9bd b7be 6809 9cbf c544 6fbe 1908 153f
00000340: f805 b8bf ccd4 6dbf 3891 d2be c212 22bf
00000350: 3552 2bbf 0713 78bf 6b25 533f 4ee9 d83d
00000360: a23b 533e 4063 2bbf 9a27 0340 434e 27bf
00000370: 324e ab3f 74a8 19bf f5f8 05bd 88a1 8ebf
00000380: a883 ba3c 18f7 79bf 43d2 83be 9152 48bf
00000390: 44c9 013f 38f3 96be d053 173c 82b4 78bf
000003a0: c7e7 ac3e 06b5 2bbd ac8c 49be 5811 e23d
000003b0: 3aae 54bf debd 9fbe 6ef9 a13e 10c6 963f
000003c0: 7e9b 9bbf 3d67 ea3e 5c45 93bf 185a 60be
000003d0: aad4 8f3e 3981 55bf e007 36bf 502b e63e
000003e0: 8fee b7be 3ec9 283f dd05 98be 6803 99be
000003f0: dff9 5d3f a935 b9be 75f8 b0be aea5 a63e
0.029511519 -0.03472185 -0.11854549 -0.0046680053 -0.41859457 -1.3074785 -0.20721129 0.18348464
0.76175 0.21885724 -0.11770565 0.1794263 -0.22916485 0.15864196 0.6233055 0.1890219
-1.7177763 -1.3351429 -0.33441442 0.68325156 -0.08635128 0.3485075 -1.2041036 0.7289095
-0.21200195 0.050438467 -0.38472992 1.7040596 -0.8468793 -0.34236166 -0.74325323 0.9053392
-1.9683967 -0.9333104 0.08503542 0.14849624 -1.4648933 -0.10724407 -0.17674994 0.31892172
-0.8514727 -0.68253636 -0.024677493 0.8867556 0.40432978 -0.98310155 1.422955 0.30471808
-0.49749762 -0.1802831 0.96638376 -0.43945754 0.36096612 0.10526893 0.73214006 0.25433415
0.60019237 1.0134337 -0.6621658 -0.7234332 -1.3988571 -0.71711993 0.22801004 -0.25592232
-0.112336755 -0.6547355 0.7533554 -0.27665138 1.7004842 -0.2055609 -0.43154612 0.1667012
-0.124063365 -0.7059586 0.11208771 0.22577997 -2.2914255 -0.59300965 0.32386374 0.6770603
-0.101532 0.5522076 -0.61747897 -0.3934332 0.37780955 -0.54236066 -0.89203715 0.3940308
-0.0669587 0.6072198 -0.3723198 -1.7556832 0.017856687 -0.62845045 0.85247374 -0.8774392
-0.039332874 -0.11378164 -0.51092464 -1.4916853 1.3242985 0.10448784 0.18975285 0.5247682
-0.99317205 -1.3320028 0.40388113 -0.88715416 -0.25205284 -0.5650714 -0.16710658 -0.71500105
-0.6146185 0.5286691 0.01821577 -0.8072533 -0.43738368 -1.1683103 1.252781 -1.1992835
-0.1545831 -0.57645535 0.22237398 0.09190171 0.18090345 -0.74297684 -0.5642858 -0.6183903
-0.6789142 -0.4280572 0.8470899 -0.12952891 0.03550636 -0.86057025 1.1963266 -0.97197354
1.0560673 0.36258864 -0.22007313 0.1472333 -0.3411871 0.8177067 -0.156133 0.8860123
-1.0970854 -0.02808755 -0.20155971 0.22436193 -0.9058529 0.3142 0.025843687 -0.42270848
-0.2938323 -0.021706918 0.29371962 1.2724912 0.13805968 -0.2759036 0.5844267 -0.272781
0.3351039 0.40921858 -0.8972924 -0.10534831 0.2636602 0.41709536 -0.72972536 0.16596569
0.12327022 0.99853367 -1.4552162 -1.1901726 -0.4369125 -0.14128737 -0.4182481 0.30556518
-0.102471456 0.44014463 0.44324845 0.9733999 1.8067449 0.82560754 -0.59820795 -0.28574416
0.27956387 0.15824912 -0.8472232 0.19444877 0.52906626 0.54971796 1.598719 -0.11443778
-0.5125306 -0.2308505 -0.45589146 -0.6397077 -1.0302993 0.88261324 0.09520675 0.049390793
-0.49965256 0.12826198 -0.25434816 -0.1554358 -0.35887125 -1.219037 -0.23366077 0.5821548
-1.4376822 -0.9290283 -0.41126418 -0.6330987 -0.6692231 -0.96904033 0.8247897 0.10591374
0.20628217 -0.6694832 2.049292 -0.6535379 1.3383238 -0.60022664 -0.032708127 -1.1143045
0.022767857 -0.9764266 -0.25746354 -0.78250986 0.5069773 -0.29482436 0.009236291 -0.97150433
0.33770582 -0.041920684 -0.19682568 0.11038464 -0.8307835 -0.31199545 0.31635612 1.1779194
-1.2156827 0.4578189 -1.1505542 -0.21909368 0.28091937 -0.83400303 -0.71105766 0.4495492
-0.35924193 0.6593207 -0.29691973 -0.2988541 0.867094 -0.36173752 -0.34564558 0.3254828

weight f4 [16]
00000000: 2e1d bb3f 9da2 b23f 88de a73f e64f b63f
00000010: e04c c63f de75 b63f 0156 1440 10e6 1a40
00000020: c777 0741 2e62 0741 b2bf 0941 375d f740
00000030: 0d83 0641 4787 0641 3bf9 0d41 beea 0c41
1.461828 1.3955876 1.3114786 1.4243133 1.549221 1.425472 2.3177493 2.420292
8.4667425 8.46147 8.609301 7.730129 8.406995 8.408027 8.873347 8.80731

bias f4 [16]
00000000: a471 ce3c 8938 ea3e 096c 63bd cb81 5dbd
00000010: d7ce 273d 1768 6dbd b689 b2bf ae18 afbf
00000020: 97f0 f53f ccbd a93f 4f92 6a40 a30d ba3f
00000030: 6a66 0e40 89a7 0640 d3ee 0540 35b2 4d40
0.025200672 0.45746258 -0.055522952 -0.05407886 0.040968742 -0.057960596 -1.3948276 -1.3679407
1.9214047 1.3261046 3.66518 1.4535412 2.2250009 2.1039755 2.0927017 3.214002

running_mean f4 [16]
00000000: f3d0 b8c0 5907 11c1 2112 84c0 1792 1bc1
00000010: 9916 71c0 c900 e6c0 6d72 16c1 2ae8 b8c0
00000020: 520c d2c0 703d bfbf bbff e2c0 26ca e1bf
00000030: 7a4b 1f3f 543c 2941 1ec4 41c0 1472 de3f
-5.7755065 -9.064294 -4.127213 -9.723166 -3.7670043 -7.187596 -9.402936 -5.7783403
-6.564004 -1.4940624 -7.093717 -1.7639816 0.62224543 10.577229 -3.027595 1.7378564

running_var f4 [16]
00000000: ca09 8942 53a0 9442 7783 6a42 5737 ac42
00000010: 5878 3942 f07d 6742 8e05 9e42 e0be eb42
00000020: 4528 2242 dd6a 5a42 60a7 5b42 bf06 5f42
00000030: 4a2d 4642 0616 6442 3e6e 9442 e33a 8842
68.51912 74.31313 58.628384 86.108086 46.367523 57.872986 79.01085 117.8728
40.539326 54.60436 54.913452 55.756588 49.544228 57.021507 74.21532 68.11501

weight f4 [64, 96]
00000000: 41a0 b0be 7ad5 38bf b7cd 1bbf 12b0 08bd
00000010: 93cf 0fbe 2315 48bf 7622 ac3e 66f9 eb3e
00000020: ab0f 03bf 08d7 1abf 14e1 01bf e464 613f
00000030: 0079 44bc ae35 0dbe 04db 953d f1a2 163f
00000040: ba32 b7be 7c00 af3d 2ee3 99bf a315 b73d
00000050: e0de 29bf c781 a1be 2084 63bf 6da9 4b3f
00000060: 6225 9ebe b6a4 ecbe ed84 f9bd d777 6d3f
00000070: a51e 443d 6006 103e 99ad c5be b999 83be
00000080: e2b9 d03e 9857 223e 07d7 02be a341 5d3d
00000090: 2d28 19bf 6af6 f3bd 1887 243f 1c6d ffbe
000000a0: 6602 8dbe 256b 643e 8034 793f 23b1 79bf
000000b0: a815 09bf e55a d6bd 4c04 833e 58bb 6cbe
000000c0: 2a51 f8bd c485 4fbe 4d6e 37bf 7cef 1f3e
000000d0: 930f c33d 8aa1 5ebe 245a 87bf d04b d43e
000000e0: 2b84 da3c 07f6 d3be de8a 7abe f9a2 5d3e
000000f0: cbd9 1dbf 7aac 45bf 7229 babe b2ba 16bf
00000100: 7881 d2bd c56e 9fbf 19e7 bfbc 05a0 34be
00000110: 862a 18bf 0d62 36be f308 4ebf 47cd 13bd
00000120: 5af4 80be 404a c4be 0cac 733f 208c 42bf
00000130: ce4f 63be e635 11bf b9f9 fabe bc7e 42bf
00000140: 8a29 6ebf a253 59be 2a57 4dbf a6b9 a63e
00000150: b8d7 1ebe b0c6 bbbe af3b 0ebe 0adc 813f
00000160: f6d7 5cbf dad6 9cbe 3f3d 2ebf fb21 32bf
00000170: 42ab 27bf 102b 193e 7ca8 5fbf ea17 fa3e
00000180: 77bd 69bf 7bec a4bf df99 98bd 6629 aebd
00000190: 46fe 1c3e 4153 8fbf 0b47 8e3f 974d 8e3e
000001a0: fd7a 6abe 6917 acbf e341 00bf 549f a93d
000001b0: 1fdb fb3e 82d8 ad3e ea14 30bf dc8c a93e
000001c0: 3f60 95bf d577 0dbf 9390 fabf ef25 44be
000001d0: 1d06 57bf fa5f 3fbf b2f4 8cbf 68dd 803f
000001e0: caa5 66bf b8cd bf3b 9a0c 793e cb7e 623f
000001f0: 993e 3d3f b042 f83e 5cc7 043e dd9a a8be
00000200: e1df 19be e82a af3e e7b6 75bf 0b09 21be
00000210: c196 97bf cc54 c53d 0c16 203f beba 3fbf
00000220: 7a60 e63e a11d 843c 240a 633f f89a f5bf
00000230: 3028 fabe 5b85 163f b87c 173f b73f 95bc
00000240: ebed 95bf 4f4d bebd 5522 253e 906f dcbd
00000250: ba18 253f 50bd e6be b9bc acbf c243 f83d
00000260: 65b4 b83e 02fa 77bd 4396 f7be 897d 9d3e
00000270: 6eda 02be 4751 0e3e 3f8a 8abe fbee a3bf
00000280: f6f1 dfbd 6590 cbbf 3e84 fcbe cd26 5ebf
00000290: 14f3 90bf acff 33bf 51e0 86bf 6e65 fbbd
000002a0: 8f45 a4be ba8f 57bc b951 963f 4091 aabf
000002b0: 4405 95be 302f eebe 9ec8 5abf 8cb0 89bf
000002c0: 4a55 0abf 6271 04be 7e34 6fbf 78d4 5c3f
000002d0: 0ee0 abbe 8ee6 43bf a741 393f 62f6 a53f
000002e0: 7207 adbf a793 56bf e3be 1bbf 7635 e3bd
000002f0: 6574 87bf 8273 92be 83bf 8abf a64b 633f
00000300: f67d 10bf 3a9d 033f 5a3a d2be d02e b23d
00000310: a308 6fbe 6f7e c83e 8c97 fbbe 53f3 f93e
00000320: cb5d 28bd e69d 8fba 6f18 33be a563 a33e
00000330: 1840 1abe ae56 e4be 4656 863e 5e9c 3f3e
00000340: fbbb 44bc 5f4b 5dbe d90d ed3d a14c 56bf
00000350: d896 35bd 6525 52bf 1ff9 a2be ff8e 1b3f
00000360: a8bf 0d3e 1820 063e 5b65 b2bc 5e86 c6be
00000370: 9c71 533d ef8b 9f3e faf7 a9bd 7861 52be
00000380: 0cb3 ffbe eaf7 7ebe fb9c f73d 2f95 e03d
00000390: e9fc 5dbd bc51 0abe 9702 c9bc 60ec b3be
000003a0: 486c 6ebe e02b cbbd d8ce f03d 2ec6 e43e
000003b0: 1fbf 19be ff69 c53e 21ff b53e 98f5 b2bd
000003c0: 1685 e63e e8ac 75be 31be c1be 43b0 a4be
000003d0: f850 473e 782d bfbe ec3f fbbe b05c 80bd
000003e0: 6255 393f 5ecb 2d3f 6427 80be 5998 78be
000003f0: 6701 093f fbfd 70be 0350 f9be f528 333f
-0.34497264 -0.7220074 -0.6086077 -0.03337104 -0.14044027 -0.7815725 0.33620042 0.46088713
-0.5119578 -0.6048436 -0.50734067 0.8804457 -0.011991739 -0.13790008 0.073171645 0.5884238
-0.3578089 0.08545014 -1.2022455 0.08939674 -0.66355705 -0.31544325 -0.8887348 0.795554
-0.30887896 -0.46219414 -0.12183557 0.92760986 0.047880787 0.14064932 -0.38609007 -0.2570322
0.40766817 0.15853727 -0.12777339 0.054017674 -0.5982693 -0.11912234 0.64268637 -0.4988793
-0.27540892 0.22306497 0.97345734 -0.97535914 -0.5354867 -0.104665555 0.25589216 -0.23118341
-0.12124856 -0.20265871 -0.7165268 0.156187 0.09524455 -0.2174131 -1.0574384 0.4146409
0.02667435 -0.4139864 -0.24467036 0.216442 -0.6166045 -0.77216303 -0.36359745 -0.58878624
-0.102786005 -1.2455679 -0.023425626 -0.17639168 -0.59439886 -0.17810841 -0.80482405 -0.03608444
-0.25186425 -0.38337898 0.951844 -0.75995064 -0.22198412 -0.5672287 -0.49018648 -0.7597463
-0.93032134 -0.2122331 -0.80211127 0.32563514 -0.15511978 -0.36675024 -0.13889955 1.0145276
-0.8626703 -0.3063267 -0.68062204 -0.695831 -0.65495694 0.14957833 -0.8736646 0.4884637
-0.91304725 -1.2884668 -0.074512236 -0.0850399 0.15331373 -1.1197282 1.111543 0.2779357
-0.22898479 -1.3444644 -0.50100535 0.082823426 0.49190614 0.33954245 -0.6878191 0.3311528
-1.1669997 -0.55260974 -1.957537 -0.19155096 -0.83993703 -0.74755824 -1.1012175 1.0067568
-0.90096724 0.005853381 0.24321213 0.8847472 0.7392364 0.4848838 0.12966675 -0.3293065
-0.1502681 0.34212422 -0.9598221 -0.15726106 -1.1842881 0.09635314 0.6253364 -0.7489432
0.4499548 0.01612741 0.8868735 -1.9187918 -0.48858786 0.58797234 0.5917468 -0.018218858
-1.1713232 -0.09292089 0.16126378 -0.10763466 0.64490855 -0.4506631 -1.3495094 0.12122299
0.3607513 -0.06054116 -0.48356828 0.30759838 -0.12778637 0.13898192 -0.27058598 -1.2807306
-0.10934822 -1.5903441 -0.49319643 -0.86777955 -1.1324182 -0.70312 -1.0537206 -0.122752056
-0.3208432 -0.013156826 1.174369 -1.3325577 -0.2910558 -0.46520376 -0.8546237 -1.0757003
-0.5403639 -0.12933877 -0.9343947 0.862617 -0.33569378 -0.76523674 0.723658 1.2965815
-1.3517897 -0.8381905 -0.60838145 -0.11094181 -1.0582396 -0.2860375 -1.0839695 0.88787305
-0.564422 0.51411784 -0.41060144 0.08700335 -0.23343138 0.3915896 -0.4913906 0.48818454
-0.041105073 -0.0010957092 -0.1748979 0.3191196 -0.15063512 -0.4459738 0.26237696 0.18711993
-0.012007709 -0.21610783 0.11574907 -0.83710676 -0.04433331 -0.8208831 -0.3183069 0.6076507
0.13842642 0.1309818 -0.021776846 -0.3877439 0.05162202 0.31161448 -0.08299251 -0.20544994
-0.4994129 -0.24899259 0.120904885 0.109659545 -0.054196272 -0.13507742 -0.024537368 -0.35141277
-0.23283494 -0.09920478 0.11758202 0.4468245 -0.15014313 0.3855743 0.3554621 -0.087382495
0.45023412 -0.2399174 -0.37840417 -0.32165727 0.19464481 -0.37339377 -0.49072206 -0.06267679
0.7239591 0.6788844 -0.25030053 -0.24276866 0.53517765 -0.23534386 -0.48693857 0.6998437

bias f4 [64]
00000000: 876c d7be fcf3 a9be a44b d23f 5df9 3540
00000010: f9ae ad3f 05e3 8c40 d982 b540 340a ef3e
00000020: 7327 aebe 8958 2940 b0bf dc3f 0751 94be
00000030: 22bc 0740 29d0 1c40 00a4 1fbe f428 3f40
00000040: 0bcc 1340 a38e a5bd 681d c83f 564a 6ebe
00000050: 85ed 1840 82a0 3740 7998 6f40 0563 8c3f
00000060: 5a9c a0be 294a cf3f 3048 ed40 4895 983f
00000070: 6c5b 06be a695 0040 fe00 2dbf fd0d 8bbe
00000080: 5143 363f 274a 8dbe cc9f a340 59d1 9240
00000090: 6e79 b4bd 96e3 bd40 aca3 98be 107b ba3f
000000a0: ba07 963f 3d71 2040 ba1e 853f abef dcbe
000000b0: 9b5d ba3f 99c3 17bd c5a1 fd3f 18f1 d13f
000000c0: d8e5 45bd b598 0cbf fbdc 8c3f d7e2 94be
000000d0: 806d 8cbe 8f08 8940 bbbd 86be fa77 3240
000000e0: 98e3 ae40 8a61 913f f042 ab40 cec1 f33f
000000f0: 279c a03f f0cb 8bbe 1665 c33f bfe2 233e
-0.42074987 -0.33193958 1.6429334 2.843345 1.3569022 4.4027123 5.6722226 0.46687472
-0.34014472 2.6460288 1.7245998 -0.2896807 2.1208577 2.450205 -0.15589905 2.9868746
2.3093288 -0.080838464 1.5633974 -0.23270544 2.389497 2.8691716 3.7436812 1.0967718
-0.31369287 1.6194507 7.415062 1.1920557 -0.13120812 2.0091338 -0.6757964 -0.2715911
0.71196467 -0.27595636 5.1132565 4.588055 -0.088122234 5.9340315 -0.29812372 1.4568806
1.1721108 2.5069115 1.0400002 -0.43151602 1.4559816 -0.03705177 1.9814993 1.6401701
-0.0483149 -0.5492051 1.1004938 -0.29079315 -0.27427292 4.2822948 -0.26316628 2.7885728
5.4652824 1.1357892 5.351921 1.904352 1.2547654 -0.2730403 1.5265224 0.16004466

weight f4 [1, 64]
00000000: 0b76 8ac0 982a ccc0 a4c8 0740 19cb 823f
00000010: 0db9 0c40 5ac8 cd3f e98e 0440 2f82 923f
00000020: 4d42 7bc0 0778 743f 7283 d83f fe76 39c0
00000030: 7d24 473f fe75 643f 3f56 28c0 1abd 8a3f
00000040: 7511 593f e0bf 22be 7790 0440 f474 cbc0
00000050: 7f99 613f 93a5 863f 2dbf ad3f 2dbe da3f
00000060: 63fd 2ec0 bda8 f93f bb6f 2d40 4720 f63f
00000070: ab6a 1fc0 f201 0840 1c01 d2c0 ba8c 34c0
00000080: 9e5c 9e3f 6dbf 61c0 e6d8 ee3f 8020 d63f
00000090: bfe1 72c0 3700 0a40 9f3d d5c0 f7f9 0340
000000a0: b5d8 e43f 8d01 683f 7e11 df3f 1e8c a1c0
000000b0: 7d34 0240 e102 6dc0 e880 2340 7970 1c3f
000000c0: f7b5 23c0 5a56 71c0 1d4d 703f 2608 5ac0
000000d0: 3b79 2dc0 31ce c53f 78ee 60c0 4b2e 813f
000000e0: a0b4 fd3f ce16 c33f e4b0 f83f c8db 1840
000000f0: b002 0840 25fd 60c0 d974 b13f 601e c13e
-4.3269095 -6.3801994 2.1216211 1.021823 2.1987946 1.6076767 2.0712225 1.1445979
-3.9259217 0.9549565 1.6915114 -2.8978877 0.7779005 0.8924254 -2.630264 1.0838959
0.8479226 -0.15893507 2.0713174 -6.3580265 0.8812484 1.0519279 1.3573967 1.7089287
-2.7342155 1.950462 2.7099445 1.92286 -2.4908855 2.1251187 -6.5626354 -2.8210893
1.2372015 -3.5273087 1.8659942 1.6728668 -3.7950284 2.156263 -6.663772 2.0621316
1.7878634 0.90627366 1.7427213 -5.048354 2.0344536 -3.7033007 2.5547428 0.6110912
-2.5579813 -3.7708955 0.93867666 -3.4067473 -2.7105243 1.545355 -3.514555 1.0092252
1.9820747 1.5241334 1.9428983 2.3884144 2.125164 -3.5154507 1.3863784 0.37718487

weight f4 [64, 96]
00000000: 4fea 0bbf 060a 9cbe 8b56 2a3f b36f ffbe
00000010: c0e0 4cbe 891d 77bd 0327 cabe dba1 14bf
00000020: 6da9 e23e 622e 4fbb e712 c3be 45cf f2be
00000030: 63e8 bd3e 8283 b83e 8685 3bbf c95d cebd
00000040: e9dc 043f d4d4 b0be deb6 01bf cda6 f5be
00000050: 23a1 87bf c056 c03c 49ce ba3f 56da 323f
00000060: affb 3cbf b96e 0b3f 4a75 5e3d 535e 6e3e
00000070: 18d5 b0bd 8b3f b5be 9a50 9f3d fb98 6e3f
00000080: 5168 de3e 875e 0ebe b89c 70bf 786f 1ebf
00000090: d162 243e 42d3 c33e 4454 14bd 5841 6d3e
000000a0: e868 d23e d609 87be 2f9b 933f 03fc ba3d
000000b0: a6d7 413e bee6 2fbf a2e8 2cbf 1d3c 0dbe
000000c0: 266d 02bf f4eb d23e 9eca 51be 9653 24bf
000000d0: e05f 66be ba2d a1bd cc61 28be 8b69 403d
000000e0: 0e75 9abe de29 fabe 9cc1 b0bd 4593 9f3d
000000f0: d210 853b 9383 493d 59f0 d5be c7b7 aa3e
00000100: e40f 7a3e 4e16 a63e c37e fdbc 5d3c 27bf
00000110: c1c0 62bf e9fa 09be 2454 6bbe 8780 8a3e
00000120: af9e 12bf 4aa9 15be ff7d 03bf a595 e8be
00000130: c3d0 a2be beb2 28bf ff99 babe a186 a9be
00000140: d28b e1be 241c 12bf 0e3b 223f 8ddc 49bf
00000150: da2e 743d 375a 50be b622 ad3e 877e 32bf
00000160: 9dcc 953c 04dc 273e 0113 373e 2405 a33c
00000170: bdd4 7bbf f6e3 df3d 894b 48bf c0b9 8ebf
00000180: efb4 b8be 4151 8dbe a921 1b3e e297 4d3e
00000190: d782 933e bc9a babe 0aca 04be 743b bebd
000001a0: b34c 85be 8af7 0abe 1299 14be 5f3d 053e
000001b0: 4725 bc3e 6c75 ebbd 6f1f 83be 59a0 57be
000001c0: 74a0 51be ee30 b8bd e199 b0be 9134 863e
000001d0: 89bf e93d d3cb 033f b713 0dbe 922d 06be
000001e0: e608 f1be 78b9 2dbd 5d76 a7bd aae9 063e
000001f0: f74b 8fbe 23c7 71be 54ea 6dbd 3b43 583e
00000200: 827c d6be ecdf cebd 8e45 eb3c 1ae2 d8bd
00000210: c78f ab3d d585 0c3f 2b1d 65be 3304 e03d
00000220: 0a1f 19bd ef3c 06be 8eb4 c0be a7a0 383d
00000230: f708 64be a17d 1e3d 4024 3bbe 740f 21be
00000240: 148d 8ebc 5f4b 18be 9037 c6bd 80d6 113d
00000250: be5d 88be 7d3d f9bd ab96 8d3c 2148 943d
00000260: eedc 9a3e cc3e a7bc a77a 99bd 3a58 253e
00000270: 76c5 0fbd f5d1 19be 2cb4 a33d 6a0c 093e
00000280: 5988 cfbd 79e3 413e c114 2cbe a33c 82be
00000290: ad42 5cbe f688 4d3e 8c38 0abe c225 18be
000002a0: 2a31 55bc d607 b7bd 3acd 233e d504 a7be
000002b0: 3c11 2b3e ae45 81be bf5f 93be 89bd a13d
000002c0: 7f84 003e 20d1 e1bd 4fbe a8be 7440 a2be
000002d0: e6a8 89be 6a2c 683a 1fb0 5fbe 8f9a 83be
000002e0: 76df 193e 8567 40be 3c98 b1be f179 0e3d
000002f0: c1ad a63a 2e5c c3be 0530 3a3e c1cd dabe
00000300: 764d 0ebe 6265 41be 1f3a 593e befe b3be
00000310: 01c5 d43e 8821 a03d 3ea7 9a3e 3220 783e
00000320: e6f5 a13e cedc 263d 6476 9fbe 861a cebe
00000330: 3d39 5cbc 53eb bcbe 7ce5 05be 205d 01be
00000340: f742 0bbf 5c86 c3be fed6 a03e d951 d1bd
00000350: 8f0d 0e3f 74c0 a53e 54b3 c8be bc7f 12be
00000360: af08 553f f096 9cbe 0a1c 44bf a57f 08bf
00000370: 845c 813e 1b8c a83d edd3 273f 0a46 02bd
00000380: adc5 d0be ce60 753e 87e4 23bd de09 9e3e
00000390: fc06 6ebe 9954 dabd 358f 7fbe 8e76 83bc
000003a0: 23c7 813d 3561 9cbc f9fe c6bd 9812 3fbe
000003b0: 3329 ce3d 9e13 9b3e 916a 71be a4fe 9a3b
000003c0: 1c53 80bd e25f d53d 0593 18bf 76b4 a6be
000003d0: e59d 2dbe e454 2dbf 89ff bbbe 5ec2 04bf
000003e0: ccfa a03e aa03 cbbe b89d 9e3e d579 40bf
000003f0: eb6c e13d 3fcb 02be 2cbb c33e 65c3 cabe
-0.546544 -0.30476397 0.66538304 -0.49889907 -0.2000761 -0.0603309 -0.3948289 -0.5805947
0.44269887 -0.003161334 -0.3810036 -0.4742376 0.3709136 0.36037832 -0.73250616 -0.10076482
0.5189958 -0.34537375 -0.5066966 -0.4797882 -1.059605 0.023478866 1.4594203 0.69864404
-0.7382154 0.54465824 0.054311074 0.2327817 -0.086343944 -0.35400042 0.077790454 0.9320218
0.43438962 -0.13903247 -0.93989134 -0.6188884 0.1605332 0.38247114 -0.036213174 0.23169458
0.41095662 -0.26374692 1.1531733 0.09130099 0.1892992 -0.6871146 -0.6754247 -0.13792463
-0.509478 0.41195643 -0.20487449 -0.6419004 -0.22497511 -0.0787005 -0.16443557 0.046975654
-0.3016743 -0.48860067 -0.08630678 0.07791761 0.004060843 0.049197745 -0.41784933 0.33343336
0.24420124 0.32438892 -0.030944234 -0.6532648 -0.8857537 -0.13474621 -0.22981316 0.27051184
-0.5727338 -0.1461536 -0.5136413 -0.4542667 -0.31799898 -0.6589774 -0.36445615 -0.33110526
-0.44051987 -0.5707419 0.6337136 -0.7885216 0.059614994 -0.20346914 0.33815545 -0.69724315
0.018286044 0.16392523 0.17878343 0.019899912 -0.9837149 0.10932152 -0.7824026 -1.1150436
-0.3607554 -0.27601054 0.15149559 0.2007747 0.2881076 -0.36446178 -0.12967697 -0.092886835
-0.2603508 -0.13570991 -0.14511517 0.13011692 0.3674719 -0.11497006 -0.2560992 -0.21057262
-0.20471364 -0.089937076 -0.344924 0.2621198 0.114134856 0.51482886 -0.13777052 -0.13103321
-0.470771 -0.042413205 -0.08176873 0.13175073 -0.27987644 -0.23611121 -0.0580848 0.21119396
-0.41891867 -0.101013035 0.02871969 -0.105900005 0.08377033 0.5489171 -0.22374408 0.10938301
-0.037383117 -0.13109182 -0.37637752 0.045075085 -0.22269045 0.038694028 -0.18275547 -0.15728551
-0.017401256 -0.14872502 -0.096785665 0.035604954 -0.2663402 -0.12169931 0.017283758 0.0724032
0.3024668 -0.020415686 -0.07494097 0.16146937 -0.035100423 -0.15021499 0.079933494 0.13383642
-0.10133428 0.1893443 -0.16804792 -0.25436887 -0.2150981 0.20071778 -0.13498133 -0.14858153
-0.01301221 -0.089370415 0.15996256 -0.32620874 0.16705793 -0.25248474 -0.28783986 0.07897479
0.12550543 -0.110262156 -0.32957694 -0.316898 -0.26886672 0.0008856716 -0.21844529 -0.25703856
0.1502665 -0.1878949 -0.34686458 0.03478426 0.0012716578 -0.38156265 0.1818238 -0.42735103
-0.13896737 -0.1888633 0.21213578 -0.3515529 0.41556552 0.078188956 0.3020572 0.24231032
0.31632918 0.04073792 -0.31145012 -0.4025461 -0.013441381 -0.36898288 -0.13075823 -0.1263318
-0.54399055 -0.38188446 0.31414026 -0.10220689 0.5548944 0.32373393 -0.39199317 -0.1430654
0.83216375 -0.30583906 -0.76605284 -0.5331977 0.25265896 0.08229848 0.6555775 -0.031805076
-0.40775815 0.2396271 -0.040012863 0.30866903 -0.23244852 -0.10660667 -0.24956973 -0.016047742
0.063368104 -0.01908932 -0.09716601 -0.18659437 0.10066452 0.30288404 -0.23575808 0.0047300626
-0.06265852 0.10418679 -0.59599334 -0.32559556 -0.16954763 -0.6770766 -0.36718395 -0.5185908
0.31441343 -0.39651233 0.30979705 -0.751859 0.110071026 -0.12772845 0.38228738 -0.396022

bias f4 [64]
00000000: c5fb 3eba 3a3e cfbd c032 17be a3dd 823d
00000010: 68c0 13be d784 abbd cbd4 05be 993b 7e3d
00000020: f5fa d3bc f788 a7bd 310a 19be c751 40bd
00000030: 6de0 bcbd 070c adbd f344 9ebc d15f 20be
00000040: 149c 14be 85c0 663b 9ddc 26be fb58 39bc
00000050: 80be c7bc 584f 22be 78e3 1dbd 1ce4 1cbd
00000060: bba9 a0bc e53d c239 19aa 9bbd 0a23 0cbd
00000070: 12e2 573d 660f 65be 709d e2bd 7189 52be
00000080: 7d28 7fbe 7ef9 99bd 5ce5 a83d 5ec8 c4bd
00000090: a82d 56bd 83c8 813c dde8 82bd 1210 ad3c
000000a0: d5fb 0cbe 6c94 a1bc c251 02be ed70 14be
000000b0: f04b 9c3d f386 503c 05ec 0ebe 4ce4 10be
000000c0: 1958 81bc a286 303d 7b7c 1c3d 3fc6 08be
000000d0: 44af 50be 6669 84bd 88ce eabb 7fbe 24be
000000e0: 0860 d2bd a49f 3fba 91f7 b33c c645 7e3d
000000f0: adcb 6e3c bb25 a6bd 8ccb 1dbe ec15 083d
-0.00072854414 -0.10119291 -0.14765453 0.0638993 -0.14428866 -0.083749466 -0.13069455 0.062068556
-0.025876502 -0.08180421 -0.14945294 -0.04695299 -0.09222493 -0.0844956 -0.019319987 -0.15661551
-0.14512664 0.0035209965 -0.16295095 -0.0113127185 -0.02438283 -0.1585058 -0.03854701 -0.03830348
-0.019612184 0.00037048678 -0.07600803 -0.034213103 0.05270583 -0.22369155 -0.11065185 -0.20560242
-0.24917789 -0.0751829 0.08246872 -0.096085295 -0.052289635 0.015842682 -0.063920714 0.021125827
-0.13767941 -0.019724093 -0.127265 -0.14496203 0.076316714 0.012727487 -0.13957222 -0.14149588
-0.015789079 0.043097146 0.03820465 -0.13356875 -0.20379359 -0.06465416 -0.0071657337 -0.16088293
-0.10272223 -0.000730986 0.021968635 0.06207826 0.014574927 -0.08112665 -0.15409678 0.03322403

weight f4 [8, 64]
00000000: d719 7d3f be5d c73e 50e4 113f 4ba4 753f
00000010: 487c c53e 2405 353f f195 0f3f 436f f73e
00000020: 6f27 943e 72da 273f ea79 3f3f ecb0 c6be
00000030: 3416 573f a127 513f 6bc7 6e3f 3ae8 5f3f
00000040: 9c17 843e 511d 393f e685 763e 1030 1a3f
00000050: d4df 553f 509f 1c3e bf1d 56bf 36a4 373f
00000060: 95cc 5d3f 04bf 453f 0ee5 663e f4a3 f03e
00000070: f92a ec3e 2762 f33e 81ca d03e 5dd2 203f
00000080: ded6 993f bae6 c83e 0cf9 9b3e 4073 07c0
00000090: d002 083f 2ed6 9abe 6c27 773e 2ea1 6b3f
000000a0: adac 2b3f f07f 153f a8d0 833e 5a5a 2d3e
000000b0: 7602 b13f 2c10 3cc0 543c bf3e c541 2a3f
000000c0: 8157 a43e 1ec1 5ec0 fd79 f93e 349b 933c
000000d0: 70f5 5c3e 3897 823f 2e79 f73e 374e 7d3f
000000e0: b53d 543e 8e77 f53e 55d7 47bf ef4d a4bf
000000f0: 4597 623d 42d8 943f 2cf4 b63e b1c3 e9bf
00000100: 3dd2 bb3e 25bb ea3d d94e 583f 6195 b13e
00000110: 10e9 8f3e 4990 41c0 9096 ca3e ede2 d3bf
00000120: b859 61be 494f 033f f578 273f bc4c a8bf
00000130: 18f4 223f 2009 af3e 6e4b a9be d000 c33e
00000140: 5fad 113c d608 e53e 6fd4 103f 45b9 493f
00000150: fb00 4f3f 45ff ad3e 8006 5c3e 5b86 733e
00000160: 27e4 2c3f 2df8 3e3f a9b2 863d 0740 883e
00000170: a690 3d3f 4394 9b3e 4a2f c63e 3593 8b3f
00000180: c139 6c3f d5cd 1a3f 8661 773f 3b27 6d3f
00000190: fa20 503f 3413 10c0 5fd4 c2bf 9d1d 743e
000001a0: 1031 193f 811d fb3e 7a35 7f3e 9c9f 093e
000001b0: 9782 fabf a116 173f 4d23 c93e bee3 273f
000001c0: 1c71 093f 0b9b fbbe 4a4a 023f b2da 04ba
000001d0: 6caf 183e 7f8e 803f 3501 833f 8136 543f
000001e0: dce6 1e3f 880e c5bf 3e03 f63e 339d 213f
000001f0: 7aa0 043f 8564 783f 271f cd3e c4ff fcbf
00000200: 08ac 183f 1d38 b5bf 3a3f 8bbe 82a3 223f
00000210: eeb3 a2bf feb5 383f 073b 2dbe 6c7e 0c3f
00000220: 3e14 4ec0 6bda 473f 16b9 0c3f 2d1f e3bb
00000230: 84a5 b53e d067 01bf df3a c13e 87a6 1c3f
00000240: 395b 71bf ed8e 2fc0 0242 1f3f 20bc 05be
00000250: 6b3e 663f cf1c 90bf f7d6 933e 059b 4fc0
00000260: 00b4 de3e b60b 4fc0 78a1 aebf 9aa1 043f
00000270: 6464 26c0 68c1 15c0 182e 903e 6ae6 e9bf
00000280: 2c06 18c0 0dd3 3f3e 2f02 7b3e 0f9f 233f
00000290: 733b 30bf 9868 843f a666 243f 5bee b3bd
000002a0: dda2 eb3d 516d 3e3f cadb 14c0 70f5 b0bf
000002b0: 22a0 4d3f d579 143f 9dbc f5bf 680e 403f
000002c0: 2c65 2f3f e3c5 6a3d 84c7 f6bf 8781 4dbf
000002d0: 7d96 90bf 29e9 4a3f e50c 02c0 a150 49c0
000002e0: c0cc 34c0 b87f 393f a8ad 353f b418 423f
000002f0: d0a3 8a3e 2830 8f3f 56ed ffbf 3d05 5c3f
00000300: be12 cc3e 9e96 873e 6431 ef3e 9289 283f
00000310: 15a1 903e 0bcd 393f 2805 d53e 9db1 583f
00000320: c46c 163f 606f 323f 3e2c 9cbf 73d6 433f
00000330: 670d 40c0 0648 603f d2b0 e73e a847 b13d
00000340: 927c 303e d3e0 e33e c768 4c3f 16e0 e83e
00000350: 805d 353f 5fbe db3e 3924 0ec0 dfdd 2f3f
00000360: 4a9d 173f 01cc ca3e c905 4f3e 86d7 763e
00000370: c9fb 153f e491 483f 7e91 4fbe 8fa5 7c3f
00000380: 61de 26bf 0629 7e3f cbaa 4dc0 81ff 3a3f
00000390: ce72 ce3e 88f4 8d3f 6b6f c7be 8bd2 003f
000003a0: 2c04 8d3e dd21 65c0 513d 9f3e f7d6 5a3e
000003b0: afe2 f23f ad91 133f dd7e d23e f6b0 0b3e
000003c0: f08b 1f3f 44e6 893f ddc3 7c3e ac67 1f3e
000003d0: 1f25 ce3e 10f4 00bf 1570 d2bf e032 dabf
000003e0: 6a94 28be 0522 383f 77a3 1d3f 9f9a 53c0
000003f0: 41d5 1d3f 59dd 493f b794 bc3e 822f 2f3f
0.98867553 0.38938707 0.56989 0.95953816 0.38571382 0.7071097 0.5608817 0.48327073
0.28936335 0.65567696 0.747954 -0.38806856 0.84018254 0.81701094 0.9327304 0.87463725
0.25799263 0.7231036 0.24074516 0.6022959 0.8354466 0.15295148 -0.8363914 0.7173494
0.8664029 0.7724459 0.22548315 0.47000086 0.46126536 0.47535822 0.40779498 0.6282099
1.2018697 0.3923853 0.30463445 -2.1164093 0.5312929 -0.3024153 0.24136132 0.92042816
0.6706036 0.5839834 0.2574513 0.16928998 1.3828876 -2.938487 0.37350714 0.66506606
0.3209801 -3.480537 0.48725882 0.018018343 0.21578002 1.0202398 0.4833464 0.9894747
0.20726664 0.47942775 -0.78062946 -1.2836283 0.055320043 1.1628497 0.35733163 -1.8262845
0.36683837 0.11461476 0.8449531 0.3468428 0.281075 -3.0244315 0.39567995 -1.6553627
-0.22006881 0.51292855 0.6541894 -1.3148417 0.6365371 0.3418665 -0.3306536 0.38086557
0.008891433 0.44733304 0.5657415 0.78798324 0.8086087 0.33983818 0.21486855 0.23781721
0.6753563 0.74597436 0.065770455 0.2661135 0.7404884 0.30386552 0.38707954 1.0904299
0.92275625 0.60470325 0.96633184 0.92637986 0.8130032 -2.251172 -1.522106 0.23839422
0.5984049 0.49045947 0.24922743 0.13439792 -1.9571103 0.59018904 0.39284745 0.6558188
0.53688216 -0.49141726 0.50894606 -0.00050679885 0.14910668 1.0043486 1.0234743 0.82895666
0.62071013 -1.539506 0.4804935 0.6313049 0.5180737 0.9702838 0.4006283 -1.9765553
0.596375 -1.415775 -0.27196676 0.63530743 -1.271116 0.721527 -0.16917048 0.54880404
-3.2199855 0.78067654 0.5496992 -0.0069312067 0.3547784 -0.5054903 0.37740228 0.611916
-0.9427982 -2.7430985 0.62210095 -0.13060045 0.8993899 -1.1258792 0.28874943 -3.2438366
0.43496704 -3.2350898 -1.3643026 0.51809084 -2.5998774 -2.3399296 0.28160167 -1.8273442
-2.3753767 0.18732853 0.24512552 0.6391458 -0.6884071 1.034442 0.6421913 -0.08785697
0.11505673 0.74385554 -2.3259149 -1.3824902 0.8032247 0.579984 -1.9198185 0.7502198
0.6851375 0.057317626 -1.9279637 -0.8027577 -1.1295925 0.79262024 -2.032037 -3.1455462
-2.824997 0.7246051 0.70968103 0.75818944 0.27078104 1.1186571 -1.9994304 0.85945493
0.3985805 0.264821 0.4671737 0.65834916 0.28247896 0.72578496 0.41605496 0.84646016
0.58759713 0.69701195 -1.2201002 0.764991 -3.000818 0.876099 0.4525209 0.086562455
0.1723502 0.44507465 0.7984738 0.45483464 0.70845795 0.4291868 -2.2209609 0.68697923
0.5922438 0.39608768 0.2021705 0.24105653 0.5858732 0.7834761 -0.20270345 0.9869012
-0.65183073 0.99281347 -3.2135494 0.7304612 0.40321964 1.109025 -0.38952193 0.50321263
0.27542245 -3.5801919 0.31101468 0.21371065 1.8975428 0.5764416 0.41112414 0.13641724
0.623229 1.0773396 0.24684091 0.15566891 0.40262696 -0.5037241 -1.6440455 -1.7046776
-0.16462865 0.7192691 0.6157755 -3.3063123 0.61653525 0.78853375 0.3683221 0.68431866

bias f4 [8]
00000000: d095 74bf 6b52 233e 332e 023f e256 a2be
00000010: 2417 c83d cad9 143f e31c 86be b3e6 823d
-0.95541096 0.15949409 0.50851744 -0.3170691 0.09770039 0.5814482 -0.26193914 0.06391659
