models/model-doom-new-experiment.pth (torch, 78089 bytes, 27 tensors)

weight f4 [8, 1, 3, 3]
0	0x3f7736a4	0.9656775
1	0x3f973f09	1.1816112
2	0xbfb425ac	-1.4073997
3	0x3e7dd7d9	0.2478937
4	0xbf1d93e3	-0.6155378
5	0xbebde732	-0.3709045
6	0xbf4f6bf8	-0.8102412
7	0xbf854145	-1.0410544
8	0xbf70475d	-0.9385889
9	0xbf8c0fe7	-1.0942353
10	0x3dd0c6f2	0.10194196
11	0xbf22b1dc	-0.6355264
12	0xbf48d774	-0.78453755
13	0x3fa403b5	1.2813631
14	0x3fa29fc4	1.2705007
15	0xbf334bae	-0.70037353
16	0x3e70f27a	0.23529997
17	0xbf92608b	-1.1435713
18	0xbef44871	-0.47711518
19	0x3f43b8b3	0.76453704
20	0x3fbc49d0	1.4710026
21	0xbf22f1e8	-0.6365037
22	0x3f85ef24	1.0463605
23	0x3f10a235	0.5649751
24	0x3db94e23	0.090481065
25	0xbe5e1255	-0.2168668
26	0xbf58f291	-0.84745127
27	0xbee7dacf	-0.45284125
28	0x3e809195	0.2511107
29	0xbf322b72	-0.6959754
30	0xbf8b2f08	-1.0873728
31	0xbea941c6	-0.33057994
32	0xbec8458e	-0.39115566
33	0x3f569858	0.8382621
34	0x3eb12187	0.34595892
35	0x3e7c63bf	0.24647425
36	0x3ff31f72	1.8993971
37	0xbfdcf525	-1.7262312
38	0x3e8c4ea0	0.27403736
39	0x3df18458	0.11792821
40	0xbfe9867b	-1.8244165
41	0xbfbcee29	-1.4760181
42	0xbd673d0b	-0.0564547
43	0x3f322918	0.69593954
44	0x3f65fff3	0.8984367
45	0xbe578f3e	-0.21050736
46	0xbe03359c	-0.12813419
47	0x3e3d7b67	0.18504106
48	0xbf91cc94	-1.1390557
49	0xbe85df01	-0.261467
50	0x3de5e6f5	0.11225692
51	0xbe6b1bce	-0.22959825
52	0x3ce60e7e	0.028083082
53	0x3f663728	0.8992791
54	0xbf5caaa0	-0.86197853
55	0x3e324d72	0.17412356
56	0x3ffedbbe	1.991081
57	0xbf1e3e5a	-0.6181389
58	0xbf9cd855	-1.2253519
59	0xbee673c5	-0.450102
60	0x3ec1d91d	0.37860957
61	0xbf95cb9e	-1.1702764
62	0xbf947494	-1.1598077
63	0x3f44b8d8	0.7684455
64	0xbfc8eedc	-1.5697894
65	0xbf2fc49e	-0.6865939
66	0xbeaf18c6	-0.34198588
67	0xbf9425fa	-1.157409
68	0xbe8e7f91	-0.278317
69	0x3f9cb9bd	1.2244183
70	0x3fbbe6ae	1.4679773
71	0xbef18ef3	-0.47179374

weight f4 [8]
0	0x3fd23058	1.6421003
1	0x3fc30475	1.5235735
2	0x3fc37da4	1.5272717
3	0x3fd889f3	1.6917099
4	0x3fd403fa	1.6563714
5	0x3f748391	0.95513254
6	0x4009a07b	2.15042
7	0x3fed69f8	1.8547964

bias f4 [8]
0	0x3ef74abd	0.48299208
1	0x3dd88fe7	0.10574322
2	0xbd8fc55f	-0.070200674
3	0xbea6be55	-0.32567087
4	0x3de79833	0.113083266
5	0xbde5ea2d	-0.11226306
6	0x3e472f0b	0.19451539
7	0xbf105a90	-0.5638819

running_mean f4 [8]
0	0xbf6901e4	-0.9101851
1	0xbef424a5	-0.47684208
2	0x3f0f0776	0.5587076
3	0xbece0b06	-0.40242785
4	0xbec1bb7c	-0.37838352
5	0xbe70df7f	-0.23522757
6	0xbf74b41a	-0.95587313
7	0xbea5cf27	-0.32384607

running_var f4 [8]
0	0x3e0227d8	0.12710512
1	0x3d0c1521	0.034199838
2	0x3d9cff62	0.07665898
3	0x3d33e242	0.04391695
4	0x3d88f827	0.06687956
5	0x3cb99431	0.022653671
6	0x3e17c809	0.14822401
7	0x3dab378b	0.08360203

weight f4 [8, 8, 3, 3]
0	0xbeb41902	-0.3517533
1	0xbf2785d0	-0.65438557
2	0x3d9307cc	0.071792215
3	0x3dd40f8d	0.103545286
4	0x3f117aaa	0.56827796
5	0xbdc9e1af	-0.09857499
6	0x3ee1e9a6	0.44123572
7	0xbeb9d2fa	-0.36293775
8	0xbef30f80	-0.47472763
9	0x3f1d196d	0.6136692
10	0xbd8fbb87	-0.0701819
11	0x3f01a69f	0.5064487
12	0xbe28f067	-0.16497956
13	0xbf3ac3dc	-0.7295511
14	0xbe90a842	-0.2825337
15	0x3d196ad4	0.037455395
16	0x3ed293bc	0.41128337
17	0x3e9b2f8b	0.3030971
18	0x3e4ae143	0.19812493
19	0xbf173c87	-0.5907673
20	0x3ee9f05a	0.45691186
21	0x3f1f90ef	0.62330526
22	0x3d8369e3	0.06416681
23	0x3f0df33e	0.55449283
24	0xbf2d6f14	-0.67747617
25	0x3b9c32ed	0.004766813
26	0xbf7b826f	-0.982459
27	0x3e464b74	0.1936472
28	0xbd0a2b41	-0.033732656
29	0xbe82ff58	-0.25585437
30	0xbe3d1145	-0.18463619
31	0xbe9d0dc8	-0.30674577
32	0xbefb2e81	-0.49058917
33	0xbe53b350	-0.20673871
34	0x3ea67b7e	0.32516092
35	0x3caca392	0.02107409
36	0x3e0e977c	0.13924974
37	0x3d503824	0.05083479
38	0xbe89052f	-0.26761767
39	0xbecf01bd	-0.40431014
40	0x3f295592	0.66146195
41	0xbf5e2e05	-0.8678897
42	0x3fbabd04	1.4588933
43	0xbfa3bf74	-1.2792802
44	0x3e0f728c	0.1400854
45	0x3f2ca616	0.6744093
46	0x3c81683d	0.015796775
47	0xbeebc09b	-0.46045384
48	0x3d45a55a	0.048253395
49	0xbcb70c8a	-0.022344846
50	0xbe3b5ce6	-0.18297157
51	0x3eeb13b7	0.4591348
52	0x3bc4fabe	0.006011336
53	0xbd3662fb	-0.04452799
54	0x3efd3766	0.49456328
55	0xbf11c3b5	-0.5693925
56	0xbc325bb1	-0.010886119
57	0x3e2c69bc	0.1683721
58	0xbdf57d6a	-0.119868115
59	0xbb85bdd1	-0.004081466
60	0xbdaae125	-0.08343724
61	0xbf156f7e	-0.5837325
62	0xbe605be6	-0.21910056
63	0x3f4e52c3	0.80595034
64	0x3f81383f	1.009529
65	0xbe47c1b6	-0.19507489
66	0xbd00ddaa	-0.031461395
67	0x3e06ca9d	0.13163228
68	0xbe538844	-0.2065745
69	0x3d6bd00b	0.057571452
70	0x3e6d8ddc	0.23198646
71	0x3ef7ad5d	0.48374453
72	0xbf1fc828	-0.6241479
73	0xbeb41036	-0.35168618
74	0xbd7d2500	-0.061802864
75	0x3d727166	0.059190176
76	0x3e85e6aa	0.26152545
77	0x3f17d609	0.59310967
78	0xbef13e62	-0.47117907
79	0x3f26fdb2	0.6523086
80	0x3f8da50f	1.1065997
81	0x3e502a64	0.2032867
82	0x3e9c074a	0.3047431
83	0xbf19fbb0	-0.6014967
84	0xbeb2ea09	-0.3494418
85	0x3f151d41	0.5824776
86	0x3e529465	0.2056442
87	0x3e2a2a1a	0.16617623
88	0xbd134bd0	-0.035960972
89	0xbe9686a1	-0.2939959
90	0xbe37aed1	-0.17937781
91	0xbf06b132	-0.5261413
92	0xbe532b2b	-0.20621936
93	0x3f2607af	0.64855474
94	0xbefe2fdb	-0.49645886
95	0x3e9a9111	0.30188802
96	0x3d08dc2f	0.03341311
97	0xbed91b50	-0.4240365
98	0xbebac5f8	-0.36479163
99	0xbf052fa6	-0.5202583
100	0xbedd48dc	-0.4321965
101	0x3dfa123e	0.12210511
102	0x3f138066	0.57617795
103	0x3e04433b	0.12916271
104	0xbe841e92	-0.25804573
105	0xbefab08c	-0.4896282
106	0xbe1860d6	-0.1488069
107	0xbe0af9ea	-0.13571897
108	0xbf2f9865	-0.6859191
109	0xbe121594	-0.14266044
110	0x3ea86a68	0.32893682
111	0x3e31d930	0.17368007
112	0xbe1876a2	-0.14889005
113	0xbf3e20b1	-0.74268633
114	0x3f075214	0.52859616
115	0xbc8c1ded	-0.017104113
116	0x3fc918a9	1.5710651
117	0xbeb3e5ab	-0.3513616
118	0xbe7812f0	-0.24225974
119	0x3e897822	0.26849467
120	0x3da75c51	0.08171905
121	0x3d315aa9	0.04329935
122	0xbe822741	-0.25420573
123	0x3e255ae8	0.16147959
124	0x3c9c9a53	0.019116556
125	0x3eb9b353	0.36269626
126	0x3dc21014	0.09475723
127	0xbf07f258	-0.5310416
128	0xbee6a44d	-0.45047227
129	0xbf778538	-0.9668765
130	0xbcc8c377	-0.024507267
131	0x3f38e9f9	0.72232014
132	0xbf6ba3ab	-0.9204661
133	0x3efa5825	0.48895374
134	0x3f737c2e	0.9511136
135	0xbefd8654	-0.49516547
136	0x3dcd0f26	0.10012655
137	0xbdd573bc	-0.10422465
138	0x3f0323d9	0.51226574
139	0xbe8e6f85	-0.27819458
140	0x3dadabcd	0.08480034
141	0xbecd9f41	-0.40160564
142	0x3edaeb91	0.42757848
143	0xbf11a8dd	-0.5689829
144	0x3f052869	0.52014786
145	0xbd86e817	-0.065872364
146	0xbfa0c367	-1.2559632
147	0x3f04c403	0.5186159
148	0x3f1a8abc	0.6036794
149	0x3f11e63b	0.5699193
150	0xbf607d73	-0.8769142
151	0x3eebb93e	0.46039766
152	0xbdbe50a0	-0.09292722
153	0xbdbd7451	-0.09250701
154	0x3e46523c	0.19367307
155	0xbe0f551b	-0.13997309
156	0x3dab9a10	0.083789945
157	0xbea8fe2c	-0.33006418
158	0x3dd2d399	0.10294265
159	0x3da0feb1	0.078610785
160	0x3da64432	0.08118476
161	0x3effb029	0.49939087
162	0x3dff56fc	0.12467763
163	0xbedbdccc	-0.42941892
164	0x3e2cd78a	0.16879097
165	0xbf1f9f1f	-0.62352175
166	0x3e973f59	0.29540518
167	0xbda34855	-0.079727806
168	0xbdf6862f	-0.12037312
169	0xbed5afcd	-0.41735688
170	0x3e8c9f76	0.2746541
171	0x3d93149b	0.071816646
172	0x3ae86af3	0.0017732069
173	0xbe730f02	-0.23736194
174	0xbf53dda6	-0.82760084
175	0x3f03ec46	0.515324
176	0x3dc4f41b	0.09616872
177	0x3e6bf8f2	0.23044184
178	0x3e11eff0	0.14251685
179	0x3f2f9d17	0.68599075
180	0x3e4fe2f5	0.20301421
181	0xbf725e2f	-0.9467496
182	0x3eacc164	0.33741295
183	0xbec9311f	-0.3929529
184	0x3ead2dce	0.3382401
185	0x3e9834b0	0.29727697
186	0x3f46dc96	0.7768034
187	0x3e78a179	0.24280347
188	0xbd9b3573	-0.07578554
189	0x3c0dd725	0.0086572515
190	0x3d8d647f	0.06903934
191	0xbe793d10	-0.243397
192	0xbe779598	-0.24178159
193	0x3f180f64	0.59398484
194	0x3e54e205	0.20789345
195	0x3ea321a6	0.3186161
196	0xbe86b2e3	-0.26308355
197	0x3ee765ac	0.45194757
198	0xbe8b4bec	-0.2720636
199	0x3ee0e052	0.43921143
200	0x3e1b7551	0.15181471
201	0xbf481286	-0.78153265
202	0x3ee8887c	0.4541663
203	0x3fc1ef8c	1.5151229
204	0xbebc9dee	-0.3683924
205	0xbf0aa53b	-0.5415837
206	0xbeedfa48	-0.46480012
207	0x3c978655	0.018496672
208	0xbf287b03	-0.658127
209	0xbd6f8581	-0.05847693
210	0xbefb5bd1	-0.49093488
211	0x3cf78c32	0.030218218
212	0xbda970b5	-0.0827345
213	0x3f4bdee8	0.79637
214	0x3d88797e	0.06663798
215	0x3a142a88	0.00056520896
216	0xbf25a92f	-0.6471128
217	0xbe42fb31	-0.19041134
218	0x3f224c76	0.6339792
219	0x3e96dc4e	0.29464954
220	0x3e2ec988	0.17069066
221	0x3f22895a	0.6349083
222	0xbdc1e656	-0.09467761
223	0x3f774d1b	0.9660203
224	0x3f31896f	0.6935033
225	0xbd773986	-0.060357593
226	0xbd095e39	-0.033537123
227	0xbf4c78ff	-0.79872125
228	0xbf29c88a	-0.66321623
229	0xbe68251e	-0.22670409
230	0x3f35b0e1	0.7097302
231	0x3da8934d	0.082312204
232	0x3e6dee39	0.23235406
233	0x3f858e99	1.0434142
234	0x3dc69c14	0.09697738
235	0xbe242b03	-0.16032033
236	0xbd80cd86	-0.062892005
237	0x3f4f8343	0.81059664
238	0xbe35c390	-0.17750382
239	0xbee1d2e9	-0.44106224
240	0x3ebc5002	0.3677979
241	0xbdaab23a	-0.08334775
242	0xbe25331c	-0.16132778
243	0xbeaf133d	-0.34194365
244	0xbefda614	-0.4954077
245	0x3ce77758	0.02825515
246	0xbe7c1594	-0.24617606
247	0x3e2917a1	0.1651292
248	0x3dbb3130	0.09140241
249	0xbf3b72e3	-0.7322218
250	0x3d1221da	0.035676815
251	0xbebdb8dc	-0.370551
252	0xbf071e5b	-0.52780694
253	0xbedd1f48	-0.43187928
254	0xbdc3cb90	-0.09560311
255	0x3dd5368e	0.10410796

weight f4 [8]
0	0x3fc755a9	1.5573016
1	0x3fb2b30c	1.3960891
2	0x3fc48049	1.535165
3	0x3ff0dec7	1.8817986
4	0x3fed43bd	1.8536297
5	0x3faf08e2	1.3674586
6	0x3ffb74fa	1.9645073
7	0x3fd9e123	1.7021831

bias f4 [8]
0	0xbf3966d0	-0.72422504
1	0x3f2631e2	0.64919865
2	0xbf14c9f9	-0.58120686
3	0xbf71a6c2	-0.9439508
4	0xbea5fb72	-0.324184
5	0x3e9cf9a1	0.30659202
6	0xbfa51987	-1.2898415
7	0x3c254ef6	0.010089627

running_mean f4 [8]
0	0xbf7cb5c4	-0.9871485
1	0xbd0bd719	-0.03414068
2	0x3ebf1631	0.37321618
3	0x3f0e8076	0.55664766
4	0xbfbd5d76	-1.4794147
5	0x40436932	3.0532956
6	0xbfe81b07	-1.8133248
7	0x3fba69a1	1.4563485

running_var f4 [8]
0	0x415be774	13.744007
1	0x41a84a3a	21.036243
2	0x415cc1e5	13.797338
3	0x41a80249	21.001116
4	0x41f96bbc	31.177605
5	0x417a4dcf	15.643996
6	0x414e077d	12.876828
7	0x414f4164	12.9534645

weight f4 [8, 8, 3, 3]
0	0x3eea0321	0.45705512
1	0x3d03936c	0.032123014
2	0xbf0b5015	-0.5441907
3	0x3e80c827	0.25152704
4	0x3d92cc77	0.07167905
5	0x3ebc6135	0.36792913
6	0x3d7d6d1b	0.06187163
7	0x3f1378cf	0.57606214
8	0x3e2847d3	0.16433649
9	0xbe80581f	-0.2506723
10	0xbd683373	-0.05668969
11	0xbebe5c26	-0.3717968
12	0xbf1f146f	-0.62140554
13	0x3edeff3c	0.43554103
14	0xbe7bd3da	-0.24592534
15	0x3b53ae8f	0.003230009
16	0x3f04ad42	0.5182687
17	0xbe20a1b0	-0.15686679
18	0x3ec81f2d	0.39086285
19	0xbed3df06	-0.4138109
20	0x3e8a655d	0.2703046
21	0xbf889d9b	-1.0673097
22	0x3ebdb48d	0.37051812
23	0xbdf3c93c	-0.11903617
24	0xbe5590f5	-0.20856078
25	0xbddad8f3	-0.10685911
26	0x3ec5c200	0.38624573
27	0xbe87267f	-0.26396558
28	0xbe103829	-0.14083923
29	0xbf56fbfa	-0.83978236
30	0xbdd29b1b	-0.1028349
31	0xbe0828e0	-0.13296843
32	0xbf153c0d	-0.58294755
33	0xbdcd9430	-0.1003803
34	0xbe693606	-0.22774515
35	0xbf4cc88b	-0.79993504
36	0x3f2eda10	0.68301487
37	0x3eb0f0e8	0.34558797
38	0xbefbaf00	-0.49156952
39	0xbf1224ae	-0.5708722
40	0xbf52b735	-0.823108
41	0x3e871e13	0.26390132
42	0x3f64bde6	0.8935226
43	0xbd84d646	-0.06486182
44	0xbf390bda	-0.7228371
45	0xbe3d078d	-0.18459912
46	0xbf02a973	-0.5103981
47	0xbea79ae6	-0.32735366
48	0x3f2c1acc	0.6722839
49	0x3f3f6d6c	0.7477634
50	0xbd4694ff	-0.048481937
51	0xbed68a89	-0.4190257
52	0xbf0a1bae	-0.53948486
53	0x3f072c44	0.5280192
54	0xbec58041	-0.38574412
55	0xbf5dd26d	-0.8664921
56	0x3ed1e2e9	0.4099343
57	0x3f47d15b	0.78053826
58	0xbcf01097	-0.029304786
59	0x3c8852df	0.016641079
60	0xbefee1fe	-0.49781793
61	0x3e98d440	0.29849434
62	0x3ece50ca	0.40296012
63	0xbd33cf22	-0.04389871
64	0xbf36ea59	-0.71451336
65	0xbe4a2454	-0.1974042
66	0xbe969901	-0.29413608
67	0x3f00b9b0	0.50283337
68	0xbebe1788	-0.37127328
69	0xbf83baf1	-1.0291425
70	0xbea26b4d	-0.3172249
71	0x3e4ab829	0.19796814
72	0xbf18953c	-0.59602714
73	0xbea00895	-0.31256548
74	0x3e91310e	0.28357738
75	0xbe3b8c00	-0.18315125
76	0x3f11404c	0.56738734
77	0x3fb87782	1.4411471
78	0xbf185392	-0.5950252
79	0xbde0f1ce	-0.109836206
80	0x3f13ed96	0.577844
81	0x3f1d03d0	0.6133394
82	0x3e800c02	0.2500916
83	0xbee64631	-0.44975427
84	0xbe1bd196	-0.1521667
85	0xbe41b83a	-0.18917933
86	0xbdf04e9d	-0.11733744
87	0x3f85100b	1.0395521
88	0x3e19c731	0.15017392
89	0xbe92fc6d	-0.2870821
90	0xbf6e592f	-0.93104833
91	0x3f515a06	0.8177799
92	0xbddfd246	-0.10928778
93	0xbf2f037e	-0.68364704
94	0x3d7c8452	0.061649628
95	0x3e29eaba	0.16593447
96	0xbe04bac9	-0.12961878
97	0xbf9bc0ff	-1.2168273
98	0x3ec7ce60	0.3902464
99	0x3ea107b2	0.31451184
100	0x3e4b3c5c	0.19847244
101	0x3f141137	0.5783877
102	0xbe0daf11	-0.13836314
103	0xbeeb5d91	-0.45969823
104	0xbe26e08e	-0.16296598
105	0x3e2cb098	0.1686424
106	0xbf03802a	-0.5136744
107	0xbeb8359f	-0.3597841
108	0xbf2d014a	-0.6758009
109	0xbe33875e	-0.17532107
110	0xbebe186c	-0.37128007
111	0xbf147a3e	-0.57999027
112	0xbe52bae8	-0.20579112
113	0x3dc8b442	0.098000064
114	0xbf26fabb	-0.65226334
115	0x3f1c49d0	0.6105013
116	0xbdc98d0e	-0.09841357
117	0xbebfd3ab	-0.37466177
118	0x3e81df56	0.25365704
119	0xbedce82f	-0.43145892
120	0xbf5d84fd	-0.8653105
121	0xbae52e49	-0.0017485108
122	0x3cc3dd44	0.023909219
123	0x3d7b7334	0.061389163
124	0xbf25b904	-0.64735436
125	0x3f24eb45	0.6442149
126	0x3f429ca7	0.7602028
127	0xbee28db9	-0.4424875
128	0x3c31aa70	0.010843858
129	0xba496c10	-0.0007683644
130	0x3d80851e	0.0627539
131	0xbea457c4	-0.3209821
132	0xbe3c68e2	-0.18399385
133	0x3e60781f	0.21920823
134	0x3e1f6fc5	0.1556998
135	0x3ee5d1de	0.44886678
136	0xbea630d3	-0.32459125
137	0xbf09311b	-0.53590554
138	0xbf094476	-0.5362009
139	0x3e93136e	0.2872576
140	0x3ea15119	0.31507185
141	0xba248913	-0.0006276529
142	0x3e5aa455	0.2135175
143	0xbee2f0b3	-0.44324264
144	0x3e98723a	0.29774648
145	0x3bc5bd9c	0.006034566
146	0xbda45b5c	-0.08025238
147	0x3f805b3f	1.0027846
148	0xbdf74b72	-0.12074937
149	0xbf070b83	-0.5275194
150	0xbe903f90	-0.28173494
151	0x3e87438f	0.2641873
152	0x3e376dc1	0.17912962
153	0xbd5a8bc5	-0.05335595
154	0x3e101252	0.14069489
155	0xbf854028	-1.0410204
156	0x3f2c7f17	0.67381424
157	0xbee1c518	-0.44095683
158	0xbf32d5d9	-0.69857556
159	0x3c84705b	0.016166857
160	0x3d192def	0.03739732
161	0x3e2b56d7	0.16732346
162	0xbf352443	-0.70758456
163	0x3e60b6ef	0.21944784
164	0xbe03069f	-0.12795494
165	0x3d3f5bed	0.046718527
166	0xbec59930	-0.38593435
167	0x3ec1fa57	0.37886307
168	0x3ec61dea	0.38694698
169	0xbeef8ddb	-0.46787915
170	0xbf25f962	-0.6483365
171	0xbed468c6	-0.41486186
172	0x3ec3e080	0.38257217
173	0x3eef9a49	0.46797398
174	0xbee9ea59	-0.45686606
175	0xbe9f67e4	-0.3113395
176	0xbec71c09	-0.38888577
177	0xbf82bae3	-1.0213283
178	0x3f42500b	0.75903386
179	0xbdd97dd1	-0.10619701
180	0x3d5647ed	0.052314688
181	0xbf1a12ab	-0.60184735
182	0x3b930046	0.0044861166
183	0xbce661dc	-0.028122835
184	0x3db1b9ce	0.086780176
185	0xbe8b3fb5	-0.27197042
186	0x3f533fa8	0.82519007
187	0x3f2e7e0d	0.6816109
188	0x3f21cd92	0.632043
189	0xbf00585b	-0.5013482
190	0x3f18bb92	0.5966121
191	0x3be4e3c3	0.006985159
192	0xbf0532a9	-0.52030426
193	0xbf62e373	-0.8862831
194	0x3ee509b8	0.44733977
195	0x3e994a48	0.29939485
196	0x3f8e1ead	1.1103112
197	0xbda070c1	-0.07834006
198	0x3cdefda7	0.02722056
199	0xbe5bf458	-0.21479928
200	0x3f07b3ef	0.5300893
201	0xbe8975a4	-0.26847565
202	0xbea93590	-0.33048677
203	0x3f6b0fed	0.91821176
204	0x3f042583	0.5161974
205	0x3ef0946a	0.4698823
206	0xbdafd085	-0.08584694
207	0xbea029b8	-0.3128183
208	0xbca94d87	-0.02066685
209	0x3bf6dba3	0.007533507
210	0x3e7f3cd0	0.24925542
211	0x3e811110	0.2520833
212	0xbe860ee5	-0.2618324
213	0x3f8ac333	1.084082
214	0xbdeef4ef	-0.11667811
215	0xbec2e948	-0.38068604
216	0xbf06cd25	-0.52656776
217	0x3b2d5d30	0.002645325
218	0xbe62364e	-0.22091028
219	0xbebfb38b	-0.37441668
220	0xbf2f6d25	-0.68525916
221	0xba938320	-0.0011254288
222	0xbf23aaf9	-0.6393276
223	0xbbf293cf	-0.007402874
224	0xbe2b9962	-0.1675773
225	0x3e57523b	0.21027462
226	0xbd84d94c	-0.064867586
227	0x3fdeb962	1.7400324
228	0x3ed79aa3	0.42110166
229	0xbd817bda	-0.06322451
230	0xbe8583e2	-0.2607718
231	0xbecd3acc	-0.4008392
232	0xbe132965	-0.1437126
233	0xbf321071	-0.6955634
234	0xbf16b119	-0.5886398
235	0xbe96ccb7	-0.2945306
236	0x3f2304ac	0.63679004
237	0xbe4779c9	-0.19480051
238	0x3f2e6f4b	0.6813857
239	0x3e7d174b	0.24715917
240	0x3d4d3590	0.05009991
241	0xbf338c4a	-0.7013594
242	0x3e3ef092	0.18646458
243	0x3f12711e	0.57203853
244	0x3ea60c77	0.32431385
245	0x3de76e1d	0.11300299
246	0x3ed4449f	0.41458604
247	0x3eb027db	0.34405407
248	0x3e8805dc	0.2656697
249	0xbf50948b	-0.8147666
250	0xbf06acb5	-0.5260728
251	0xbe8a3292	-0.26991707
252	0x3f86ea51	1.0540258
253	0x3f32a0e4	0.6977675
254	0x3ec87e20	0.39158726
255	0x3e36d02c	0.17852849

weight f4 [8]
0	0x3fc799a1	1.5593759
1	0x3ffdeca0	1.9837837
2	0x3fc37660	1.52705
3	0x3f9b2d39	1.2123176
4	0x3fdcd8b2	1.725363
5	0x3feee8ac	1.8664756
6	0x3fa46ae0	1.2845116
7	0x3fcb8b50	1.590189

bias f4 [8]
0	0xbe6f4da7	-0.23369466
1	0xbf767e89	-0.9628683
2	0xbf18b552	-0.5965167
3	0x3c9cfe05	0.019164095
4	0xbed5f6ed	-0.41789952
5	0xbf61daa8	-0.8822427
6	0x3e82d7d6	0.25555295
7	0xbf2d80a3	-0.6777441

running_mean f4 [8]
0	0xc032f4bd	-2.7961876
1	0xbfa1b5d4	-1.2633615
2	0x3e9ab450	0.30215693
3	0xbe8677f7	-0.262634
4	0xbfc8280e	-1.5637224
5	0xc01741b4	-2.3633852
6	0x3f8654ac	1.049459
7	0xbfd0a259	-1.6299545

running_var f4 [8]
0	0x41286d30	10.526657
1	0x41271c58	10.44442
2	0x414af86c	12.68565
3	0x41b03f6f	22.030973
4	0x413b3962	11.701509
5	0x418f9ce3	17.951605
6	0x4130502f	11.019576
7	0x4116193c	9.381161

weight f4 [16, 8, 3, 3]
0	0x3e664607	0.22487651
1	0x3ea8424b	0.32863078
2	0x3f396e58	0.72433996
3	0x3e69ae29	0.22820343
4	0xbe4caba0	-0.19987345
5	0xbe3fd889	-0.18734945
6	0xbf163775	-0.5867837
7	0x3e71d8c9	0.23617853
8	0xbe0c0a5e	-0.1367583
9	0x3b3ab9c9	0.0028492084
10	0xbf04d57b	-0.51888245
11	0xbd5408c9	-0.05176619
12	0xbe69e2b9	-0.22840394
13	0x3ec39885	0.382023
14	0x3ef8e67e	0.48613352
15	0xbe9dbe55	-0.30809274
16	0xbe66ab4e	-0.22526285
17	0x3d78573b	0.060630064
18	0xbebf1d01	-0.37326816
19	0xbf553264	-0.83280015
20	0xba80fbd6	-0.0009840678
21	0xbe40c9c2	-0.18826964
22	0x3dad681a	0.084671214
23	0xbe8fd759	-0.28093985
24	0x3e8e3e3a	0.2778185
25	0xbe5ea203	-0.2174149
26	0xbe81163d	-0.2521228
27	0xbf5e32cd	-0.86796266
28	0xbe0a68cd	-0.13516541
29	0xbf1673ba	-0.58770335
30	0xbddac286	-0.10681634
31	0x3e69d065	0.22833402
32	0xbc83f69f	-0.016108809
33	0x3f5a1a79	0.85196644
34	0xbe6f87ad	-0.233916
35	0x3e667571	0.22505738
36	0x3c09184e	0.008367611
37	0x3ee3fee7	0.44530413
38	0xbdea7e7e	-0.11449908
39	0xbf26703a	-0.65014994
40	0x3ea3a2e9	0.31960228
41	0x3e232508	0.15932095
42	0x3e957f6f	0.29198787
43	0xbf47023a	-0.7773777
44	0x3eb219d5	0.34785333
45	0x3ea43fbe	0.3207988
46	0x3e9f1aa4	0.31075013
47	0xbe81f5f8	-0.25382972
48	0xbc5f84c6	-0.0136424955
49	0x3f0dbce2	0.5536634
50	0x3e10373e	0.14083573
51	0x3e783674	0.24239522
52	0xbed3a681	-0.4133797
53	0xbe0f7e19	-0.14012946
54	0xbe6a9ee5	-0.22912176
55	0xbe90b233	-0.28260955
56	0xbf304d29	-0.6886774
57	0xbe864d7c	-0.2623099
58	0x3e35af90	0.17742753
59	0xbf0735c9	-0.52816445
60	0xbe067b65	-0.13133009
61	0xbe392f97	-0.1808456
62	0x3ef51e29	0.47874573
63	0x3e6e0895	0.23245461
64	0x3e847bdf	0.25875756
65	0xbecdc7e2	-0.4019156
66	0x3f00d33b	0.5032231
67	0x3eae9668	0.34099126
68	0x3f6805e4	0.9063399
69	0xbea6a742	-0.32549483
70	0xbe1e2af7	-0.15446077
71	0x3e9d211a	0.30689317
72	0x3e775638	0.24153984
73	0x3e28b88b	0.16476648
74	0xbeca48a5	-0.39508548
75	0x3d014a60	0.03156507
76	0xbe96fb4b	-0.29488596
77	0xbe611bd4	-0.21983272
78	0xbefdb6a3	-0.49553403
79	0xbc4f166b	-0.012639622
80	0x3ec37bf0	0.38180494
81	0x3e4b23f9	0.19837941
82	0xbdd6aaad	-0.104817726
83	0x3e424f93	0.18975668
84	0xbceab4d7	-0.028650684
85	0xbeb08654	-0.34477484
86	0xbe89db65	-0.26925197
87	0xbe9bacd8	-0.30405307
88	0xbce2c660	-0.027682483
89	0xbcf02e50	-0.029318959
90	0x3d5e388e	0.054253154
91	0x3c76a9a3	0.015055093
92	0xbf2ac805	-0.66711456
93	0xbeb5e9d0	-0.35529947
94	0x3f00cff1	0.50317293
95	0xbec6b19d	-0.38807383
96	0xbf254c7e	-0.6456984
97	0xbe4594d5	-0.19295056
98	0xbf00fc09	-0.50384575
99	0xbe7695ed	-0.2408063
100	0xbdf03d09	-0.117303915
101	0xbf017b8a	-0.5057913
102	0x3e9724da	0.29520303
103	0xbd53f07c	-0.051743016
104	0x3e2bc741	0.16775228
105	0xbefdd71c	-0.49578178
106	0xbe2e3476	-0.170122
107	0xbf2823c2	-0.6567956
108	0xbebc66cc	-0.36797178
109	0x3e67cf56	0.22637686
110	0x3def7579	0.11692328
111	0x3eab8ea4	0.33507264
112	0xbe82835b	-0.2549084
113	0xbea9de83	-0.33177575
114	0x3e349723	0.17635779
115	0x3e39a4e0	0.18129301
116	0x3e854a01	0.26033023
117	0xbec678a2	-0.3876391
118	0xbeba8422	-0.36428934
119	0xbe6418be	-0.22275063
120	0xbe96ca1d	-0.29451075
121	0xbf31304c	-0.6921432
122	0xbec309e8	-0.38093495
123	0x3e97fc13	0.29684505
124	0xbdbcbf54	-0.092161804
125	0xbef2d590	-0.4742856
126	0xbdeafbe0	-0.114738226
127	0x3cc9fd36	0.024656873
128	0xbe8be9f8	-0.27326941
129	0xbb9f1262	-0.0048544863
130	0x3e003a8a	0.12522331
131	0xbe1c93b6	-0.15290722
132	0xbe2d8850	-0.1694653
133	0xbe0440f8	-0.12915409
134	0xbe7f751a	-0.24947014
135	0x3e628c15	0.2212375
136	0x3e7a73ee	0.24458286
137	0xbe60732f	-0.21918939
138	0x3ed88398	0.42287898
139	0x3e6aa36d	0.22913904
140	0x3cf1313a	0.029442418
141	0xbdc649a4	-0.096820146
142	0xbe8b1498	-0.2716415
143	0xbe845747	-0.25847837
144	0xbf5203b9	-0.8203693
145	0xbf0bae62	-0.5456296
146	0x3caa50c5	0.020790467
147	0xbe691ad5	-0.22764142
148	0x3e1bf04d	0.15228386
149	0xbe3e3a80	-0.18577003
150	0x3d965df0	0.07342136
151	0x3f1510dd	0.58228856
152	0xbdad1fb7	-0.08453315
153	0xbf5c2f5a	-0.8600975
154	0x3e9bb087	0.30408117
155	0x3e748bbf	0.23881434
156	0xbf053e48	-0.5204816
157	0x3d9fd4ec	0.078042835
158	0xbf8244f3	-1.0177292
159	0x3e9d4591	0.30717137
160	0x3e773ad7	0.2414354
161	0xbe2b87a7	-0.16750966
162	0x3f1ab501	0.6043244
163	0xbec23e09	-0.37937954
164	0x3ef43fca	0.47704917
165	0xbf1e5fc6	-0.6186489
166	0x3db66159	0.08905286
167	0x3f0e658c	0.556237
168	0xbe8a4caf	-0.2701163
169	0xbe9f130e	-0.31069225
170	0x3f099ffc	0.5375974
171	0x3f297b28	0.66203547
172	0xbe986900	-0.2976761
173	0xbd2106ef	-0.039313253
174	0x3f021c99	0.50824887
175	0x3df9cfed	0.12197862
176	0x3d7196be	0.05898165
177	0xbeb3231f	-0.34987733
178	0xbdf11066	-0.11770706
179	0xbd88c082	-0.06677343
180	0x3e05fd29	0.13084854
181	0x3e74fa08	0.23923504
182	0x3e4f677b	0.20254318
183	0xbe141a30	-0.14463115
184	0x3c032f23	0.008006844
185	0x3c2a5b63	0.010397765
186	0xbe72d452	-0.23713806
187	0x3d9d28f6	0.07673828
188	0x3e437615	0.19088013
189	0x3ebd36c3	0.36955842
190	0xbe60b893	-0.2194541
191	0xbf123f4b	-0.5712783
192	0xbf3bd761	-0.7337552
193	0xbf4f7421	-0.81036574
194	0x3ee0d269	0.4391053
195	0xbeb12d42	-0.3460484
196	0x3e38749d	0.18013234
197	0xbea405c4	-0.3203565
198	0x3f182ce9	0.5944353
199	0x3bafaaa9	0.0053609204
200	0x3ea9e94c	0.33185804
201	0xbed2feab	-0.4120992
202	0xbd74a848	-0.059730798
203	0x3de24dc1	0.11049987
204	0xbe48a93d	-0.1959581
205	0x3ec9ed28	0.39438748
206	0x3dd9bbd2	0.10631527
207	0x3ec8f764	0.39251244
208	0x3dae9f3f	0.085264675
209	0x3e454c54	0.19267398
210	0xbe31c88b	-0.17361657
211	0xbeb8a097	-0.3606002
212	0xbf0f68b8	-0.56019163
213	0x3d0a9c34	0.033840373
214	0xbce472ce	-0.027886774
215	0xb90de391	-0.00013531583
216	0xbe5a9bf7	-0.21348558
217	0xbf18ed4e	-0.597371
218	0xbe328809	-0.17434706
219	0xbf0a5338	-0.5403323
220	0xbd596a87	-0.053080108
221	0x3e8dc27e	0.27687448
222	0x3e46c559	0.1941122
223	0x3e0184f0	0.12648368
224	0x3e46ea4e	0.19425318
225	0xbe274068	-0.16333163
226	0xbeda24c4	-0.42606175
227	0xbe87e984	-0.26545346
228	0x3f1e1cef	0.617629
229	0x3f14df60	0.58153343
230	0xbee2e998	-0.44318843
231	0x3ee309be	0.4434337
232	0xbf041422	-0.5159322
233	0x3f35ba3e	0.7098731
234	0xbed0139c	-0.4063996
235	0xbed95294	-0.42445815
236	0x3e018a69	0.12650456
237	0x3f15cdea	0.58517325
238	0x3e1b01d3	0.15137415
239	0xbecfd63d	-0.40593138
240	0xbea29da0	-0.31760883
241	0x3f4efdf9	0.8085628
242	0x3f676f2c	0.9040401
243	0xbf10d12d	-0.56569177
244	0xbe0f0d10	-0.13969827
245	0xbe9f7c5e	-0.31149572
246	0xbeca18a1	-0.39471915
247	0xbe2b58d1	-0.167331
248	0x3d1bbf6f	0.038024362
249	0x3c048680	0.008088708
250	0x3d3ad5e6	0.045614146
251	0x3e42ca11	0.19022395
252	0xbf30d791	-0.6907893
253	0x3ef20e51	0.47276548
254	0x3ca07161	0.019585313
255	0x3eaa93cf	0.33315894

weight f4 [16]
0	0x3ffbea49	1.9680873
1	0x3fe85e5e	1.8153799
2	0x3ff840c3	1.9394764
3	0x3fae47b0	1.3615627
4	0x3fbd52d5	1.4790903
5	0x3fd1ac1a	1.6380646
6	0x3feccb44	1.8499532
7	0x400d7b28	2.2106419
8	0x407ee6c4	3.9828348
9	0x40783551	3.8782542
10	0x406dbd3b	3.7146747
11	0x406a1714	3.6576586
12	0x406828cc	3.62749
13	0x4053f02b	3.3115337
14	0x4069e7a0	3.6547623
15	0x40719e6f	3.775295

bias f4 [16]
0	0x3f09a945	0.5377391
1	0xbea595a7	-0.32340738
2	0x3ed44ed0	0.4146638
3	0x3f3f3ac5	0.7469905
4	0x3fb27dcb	1.3944639
5	0xbe89351e	-0.26798338
6	0xbe99bb3e	-0.30025667
7	0x3d5c5ccb	0.05379943
8	0x3f084e45	0.5324443
9	0x3e7e6df2	0.24846628
10	0xbc0621eb	-0.008186798
11	0x3e969c7d	0.29416266
12	0x3de0cc19	0.109764285
13	0x3f6c83dc	0.923887
14	0x3f2d120d	0.6760567
15	0x3f3431f0	0.703887

running_mean f4 [16]
0	0xbe12394a	-0.14279667
1	0xc0815d37	-4.042629
2	0xbfa8020e	-1.3125627
3	0xbed57e7b	-0.4169806
4	0xbfc63bac	-1.548696
5	0xbfa62df9	-1.298278
6	0xbfad2bde	-1.3529012
7	0xc0b46a8e	-5.638007
8	0xc02a16f6	-2.6576514
9	0xbedc994a	-0.430857
10	0xbc23cfb6	-0.009998253
11	0x3f0666b1	0.52500445
12	0xbef9d7df	-0.4879751
13	0xc00830ea	-2.1279855
14	0x3f9adca0	1.209858
15	0xbf165bae	-0.5873364

running_var f4 [16]
0	0x4121a01c	10.101589
1	0x407c0e1a	3.9383607
2	0x40f9adf0	7.8024826
3	0x40e1eafd	7.059935
4	0x41789454	15.536213
5	0x4098a43a	4.770047
6	0x40830b79	4.0951505
7	0x4097b8d7	4.7413135
8	0x40a1ee99	5.0603757
9	0x40a38e54	5.111124
10	0x40a8546d	5.260306
11	0x407a413e	3.910232
12	0x4073c741	3.8090365
13	0x40c66257	6.1995044
14	0x400e21db	2.2208164
15	0x4089827a	4.2971773

weight f4 [64, 96]
0	0x3d6b3479	0.05742309
1	0xbbef930a	-0.0073112296
2	0xbdb3eb85	-0.08785156
3	0xbd8d86a5	-0.06910447
4	0xbd1ac241	-0.03778291
5	0xbd881a2c	-0.06645617
6	0x3d4ecd71	0.050488893
7	0x3d80a0ef	0.06280696
8	0x3c6d695e	0.0144904535
9	0xbd2e3a5b	-0.04253612
10	0x3ccb1718	0.024791285
11	0x3d98c2d4	0.074590355
12	0x3da7b76a	0.0818928
13	0x3db4e924	0.088335305
14	0xbcda9e8a	-0.026686925
15	0xbdd4895f	-0.10377764
16	0x3dbcb0ec	0.09213433
17	0xbd8bcf57	-0.06826656
18	0x3db1a119	0.08673305
19	0xbc9e89b5	-0.019352773
20	0xbc84482d	-0.016147697
21	0xbd96cfec	-0.07363877
22	0xbd7ac5b0	-0.061223686
23	0x3d6816d5	0.0566624
24	0xbc289cd6	-0.010291299
25	0xbc27593f	-0.010214149
26	0xbd4601df	-0.04834163
27	0xbd71f95e	-0.059075706
28	0xbdcfe493	-0.10151019
29	0x3d895840	0.067062855
30	0x3d443df0	0.04791063
31	0xbd9f7c29	-0.077873535
32	0xbd6d4216	-0.057924353
33	0xbd926fd7	-0.07150238
34	0x3ccc557d	0.024943108
35	0x3da1add7	0.078944854
36	0xbd04d356	-0.03242811
37	0x3cd70cf8	0.026251301
38	0xbd0d20bc	-0.034455046
39	0xbd8e8b29	-0.069601364
40	0x3d819b5d	0.06328461
41	0xbdb9e9a7	-0.09077769
42	0x3d2aaebf	0.041670557
43	0x3d96b902	0.07359506
44	0xbd3b8ad5	-0.045786697
45	0x3dc1e6d7	0.09467857
46	0xbd26c86d	-0.040718485
47	0xbdc95611	-0.09830869
48	0x3d49fb49	0.04931191
49	0x3d003aa9	0.031305943
50	0xbbf6e6ea	-0.0075348513
51	0x3a9bf42b	0.0011898329
52	0xbdcf96f1	-0.10136212
53	0xbceb7eaa	-0.028746922
54	0xbd690fa7	-0.056899693
55	0x3d4d938c	0.05018954
56	0x3d4c6853	0.04990418
57	0xbd8e9a91	-0.06963075
58	0x3d971cd6	0.07378547
59	0xbdfc0c5a	-0.123070434
60	0x3c08b648	0.0083442405
61	0xbd40a361	-0.04703081
62	0x3d8a1f33	0.06744232
63	0x3d7aed23	0.061261307
64	0xbb30a38a	-0.0026952946
65	0x3d11bc6f	0.035580095
66	0xbd8cc652	-0.06873764
67	0x3db6bb38	0.08922428
68	0x3d2deba0	0.042461038
69	0x3da4decf	0.0805031
70	0x3ab57904	0.001384527
71	0x3cd6ee2a	0.026236612
72	0x3d95943d	0.07303665
73	0xbd84bb56	-0.06481044
74	0x3d84777f	0.064681046
75	0x3cbdf3b9	0.023187505
76	0xbbdd4991	-0.0067531546
77	0xbdb1d6de	-0.08683561
78	0x3da4b611	0.08042539
79	0xbd6ec6b1	-0.058294956
80	0xbdedef26	-0.116178796
81	0x3dccf1d9	0.10007066
82	0xbc1300d2	-0.008972364
83	0xbd89652c	-0.0670875
84	0xbdd64bb7	-0.1046366
85	0x3d7be02b	0.06149308
86	0xbd8a7c01	-0.06761933
87	0x3d73a130	0.059479892
88	0xbbeae2f5	-0.0071681687
89	0xbdb61ec1	-0.088925846
90	0x3dae776f	0.08518874
91	0x3b8640bf	0.004097074
92	0xbdc70339	-0.097174115
93	0x3cbe2555	0.02321116
94	0xbd8c8ecb	-0.06863173
95	0x3d66e355	0.056369144
96	0x3c81502b	0.015785297
97	0x3d4f59b9	0.050622676
98	0x3cf9b7e2	0.03048319
99	0xbd5e0314	-0.054202154
100	0xbcab45d6	-0.020907324
101	0xbdb97c44	-0.09056905
102	0xbdf94bc4	-0.12172654
103	0x3d728ed3	0.05921824
104	0xbd9af619	-0.07566471
105	0xbd06ea43	-0.032938253
106	0x3cc243a5	0.023713896
107	0xbccd7a6f	-0.025082795
108	0x3d29217e	0.041291706
109	0x3dd2a9be	0.10286282
110	0xbc26d2a1	-0.010182054
111	0xbdc25f93	-0.094908856
112	0x3dab1013	0.08352675
113	0x3d458ab2	0.048227973
114	0x3d11a3a3	0.035556447
115	0xbd01b31d	-0.031664956
116	0xbdcd850b	-0.100351416
117	0x3dce82d0	0.10083544
118	0xbcad5b45	-0.021161685
119	0x3c960f7b	0.018317929
120	0x3d82f2e5	0.06393985
121	0x3c51c0bc	0.012802299
122	0xbd7baa14	-0.061441496
123	0xbdb04eb8	-0.086087644
124	0xbda2db34	-0.07951966
125	0x3d6d6a8e	0.057962947
126	0x3def596e	0.11686979
127	0xbdad37a5	-0.08457879
128	0xbb3f4beb	-0.0029189538
129	0x3dbcfc4b	0.092278086
130	0x3dee8afa	0.116476014
131	0xbd490044	-0.04907252
132	0x3d9cd0dd	0.07657025
133	0x3dcaab33	0.09895935
134	0x3d3439f3	0.044000577
135	0xba2d3b6f	-0.00066082826
136	0xbdca3255	-0.09872881
137	0x3d37a673	0.044836473
138	0xbc5186c9	-0.012788483
139	0x3c7fb202	0.015606405
140	0x3dc8de3c	0.09808013
141	0x3d18dddc	0.037320957
142	0x3d813f87	0.06310945
143	0x3bbf4eef	0.005838267
144	0xbdf9232e	-0.12164913
145	0x3c5ba64f	0.01340635
146	0xbdd08f94	-0.10183635
147	0x3dc4d082	0.09610082
148	0x3d74b51e	0.05974304
149	0xbcdb14be	-0.02674329
150	0xbdbbfc9b	-0.0917904
151	0x3c9fa647	0.019488467
152	0xbc35a508	-0.01108671
153	0x3d9be5bd	0.076121785
154	0xbd953417	-0.07285326
155	0x3dc29d50	0.09502661
156	0x3cf1265a	0.029437233
157	0x3da014c3	0.0781646
158	0xbd90f97a	-0.07078834
159	0xbd66d7ca	-0.056358136
160	0x3bddaa02	0.0067646513
161	0xbd49a7fd	-0.04923247
162	0xbd6200d5	-0.055176575
163	0x3ddd0ee0	0.10793853
164	0x3d95958a	0.07303913
165	0x3d10cb58	0.035350174
166	0xbdb0ecf7	-0.086389475
167	0xbda1ee7b	-0.07906815
168	0xbd4b4347	-0.049624708
169	0xbd96388a	-0.07335003
170	0x3cf47d65	0.029844949
171	0xbdb61963	-0.08891561
172	0xbd2708db	-0.04077993
173	0xbd992294	-0.074772984
174	0xbd3db65f	-0.0463165
175	0x3d897efc	0.067136735
176	0xbdad815e	-0.084719405
177	0x3b91cefe	0.004449724
178	0x3cede54c	0.029040001
179	0xbd7f5e37	-0.06234571
180	0xbd2b32f2	-0.041796632
181	0x3ca7fd50	0.020506531
182	0xbdfea32d	-0.12433467
183	0x3d035888	0.03206685
184	0xbcd4ed25	-0.025991986
185	0x3d8b090f	0.06788837
186	0xbcbe15a2	-0.023203675
187	0xbccfcb4e	-0.025365498
188	0xbcb743fb	-0.022371283
189	0xbd88c2b6	-0.06677763
190	0x3da6a62b	0.08137163
191	0xbcde82fa	-0.027162064
192	0x3d2dab3d	0.042399634
193	0x3dbf3a47	0.093372874
194	0x3c4c02e2	0.012451859
195	0xbca7aaae	-0.020467129
196	0x3eb34b35	0.35018316
197	0x3df32491	0.11872209
198	0xbc09d8b8	-0.008413486
199	0x3e45963b	0.1929559
200	0xbdbdfa1b	-0.092762195
201	0x3ea04cf8	0.31308722
202	0x3d77ee9d	0.060530294
203	0x3e307e5b	0.17235701
204	0x3e37e189	0.17957129
205	0xbe059d63	-0.1304832
206	0x3d016353	0.031588864
207	0xbe612d16	-0.21989855
208	0xbd559558	-0.05214438
209	0xbe2b1de4	-0.16710621
210	0x3e93b855	0.28851572
211	0x3da8bf35	0.08239595
212	0x3de20974	0.11036959
213	0xbdeeba2d	-0.11656604
214	0xbd60d154	-0.05488713
215	0x3e0751f4	0.13214856
216	0x3c81e5dd	0.015856678
217	0x3d8a39f2	0.067493334
218	0x3d687897	0.05675563
219	0x3d59e6a6	0.05319848
220	0x3d09fe8b	0.033690017
221	0x3e6d0aa2	0.23148587
222	0x3eb90690	0.3613782
223	0x3dc0a297	0.094060116
224	0xbd3aec45	-0.04563548
225	0x3eaddbdb	0.339568
226	0x3dc801d9	0.097659774
227	0xbbc654b3	-0.0060525774
228	0x3e7b459e	0.24538276
229	0xbcbe8565	-0.023256967
230	0xbe355c0f	-0.17710899
231	0x3dd3eee9	0.10348303
232	0x3aee6010	0.0018186588
233	0x3dc5b9ae	0.09654556
234	0x3e4bebf4	0.19914228
235	0x3c8ff24b	0.017571589
236	0x3e6f0e6c	0.23345345
237	0x3d73708a	0.059433497
238	0xbd9e7f23	-0.07739093
239	0xbdbf6eac	-0.09347281
240	0x3e711de5	0.2354656
241	0x3e23c755	0.15994008
242	0x3ddc8df4	0.10769263
243	0xbc6ed84d	-0.014577937
244	0x3e966299	0.293721
245	0x3e886c7d	0.2664527
246	0x3ea9f51e	0.33194822
247	0x3e0a8e8c	0.1353094
248	0x3d8e0809	0.06935126
249	0x3e4ab899	0.19796981
250	0x3e9654d7	0.29361603
251	0x3d909a28	0.07060653
252	0xbdfc7433	-0.12326851
253	0xbc50691b	-0.012720372
254	0xbd22f1e4	-0.039781466
255	0x3e651fd0	0.22375417

bias f4 [64]
0	0x3d092992	0.03348691
1	0xbdad6dfa	-0.08468242
2	0x3ed6350b	0.41837344
3	0x3e08ffea	0.13378873
4	0xbd9383f9	-0.07202906
5	0xbb3623b8	-0.0027792286
6	0x3dc551f9	0.09634776
7	0x3d77e06e	0.060516767
8	0x3bf7ec8c	0.0075660404
9	0x3dc7cd7c	0.0975599
10	0xbd4ee908	-0.050515205
11	0x3d4259d0	0.047448933
12	0x3b507bff	0.0031812189
13	0x3dd09327	0.10184317
14	0x3d88278e	0.066481695
15	0x3d410173	0.047120523
16	0x3d673add	0.05645262
17	0xbcc27ba1	-0.023740591
18	0x3c684fcc	0.014179181
19	0x3d2da049	0.042389188
20	0x3da35f80	0.079771996
21	0xbdb55d00	-0.08855629
22	0x3d23afa1	0.039962415
23	0xbd020350	-0.03174144
24	0x3ed53f10	0.41649675
25	0x3d8082bc	0.062749356
26	0x3d8a79de	0.067615256
27	0x3d459584	0.048238292
28	0xbd87a392	-0.066229954
29	0x3c613d25	0.013747488
30	0x3ce3d0ba	0.02780949
31	0x3b1e05a9	0.002411226
32	0xbca89519	-0.020578908
33	0xbbb05bed	-0.005382052
34	0xbb0c9d80	-0.0021456182
35	0xbd0b695d	-0.03403603
36	0x3cf95f5e	0.030440982
37	0xbbc9dd5d	-0.0061604218
38	0x3dccc5bd	0.09998653
39	0x3d3ebef2	0.04656882
40	0x3d8d5a52	0.06901993
41	0x3e3147fd	0.17312618
42	0xbdf272fa	-0.11838336
43	0x3cf3512c	0.029701792
44	0x3d86031f	0.06543564
45	0xbcf8ccae	-0.030371036
46	0x3e1a4214	0.1506427
47	0x3cf47d26	0.029844832
48	0x3df6b776	0.12046711
49	0x3e8b41a8	0.2719853
50	0xbd36298d	-0.04447322
51	0x3dc131d2	0.094333306
52	0xbd30c0d3	-0.04315264
53	0xbc89558c	-0.016764425
54	0x3f4cdd7b	0.8002545
55	0x3de47d92	0.11156763
56	0x3df3952f	0.11893689
57	0xbcf61fee	-0.030044522
58	0x3bfad3dd	0.0076546506
59	0x3f321365	0.69560844
60	0x3d25954c	0.040425584
61	0xbc0d94e1	-0.0086414525
62	0x3db56900	0.08857918
63	0x3f17adb3	0.5924942

weight f4 [1, 64]
0	0xbe1d6a4e	-0.15372583
1	0x3e4e01cd	0.20117874
2	0x3f13832d	0.57622033
3	0x3ebec1fd	0.37257376
4	0x3e53952a	0.2066237
5	0x3e6854c8	0.22688591
6	0x3ed5361b	0.41642842
7	0x3f272650	0.65292835
8	0x3e248b89	0.16068853
9	0x3ed0acc3	0.40756807
10	0xbdf51bd8	-0.119682014
11	0xbc6053b8	-0.013691835
12	0x3ebebef7	0.3725507
13	0xbe9d078f	-0.3066983
14	0xbf0f7df0	-0.5605154
15	0xbf671e68	-0.9028077
16	0xbf20f9ab	-0.62880963
17	0xbecc9544	-0.3995763
18	0x3e760915	0.24026902
19	0xbe662544	-0.22475153
20	0x3ecd4956	0.40095013
21	0xbd4862d5	-0.04892238
22	0x3df366d2	0.11884846
23	0xbf193fae	-0.5986279
24	0x3f0b9f71	0.54540163
25	0xbef0faa1	-0.47066215
26	0x3eac89de	0.33698934
27	0x4003afcb	2.0576046
28	0xbe917410	-0.2840886
29	0x3ead29a8	0.33820844
30	0x3d963415	0.073341526
31	0x3ebf4d17	0.37363502
32	0x3e32351a	0.17403069
33	0xbf201c36	-0.62543046
34	0xbea444cd	-0.3208374
35	0xbd5228f0	-0.051308572
36	0x3f01353b	0.5047185
37	0xbedde87e	-0.4334144
38	0x3ef688d9	0.4815128
39	0xbf238756	-0.6387838
40	0xbf527c85	-0.8222125
41	0x3f869576	1.0514362
42	0xbc2674c1	-0.010159672
43	0xbd921a74	-0.07133952
44	0x3e92bd9a	0.2866028
45	0xbe9020ae	-0.28149933
46	0xbf8c4795	-1.0959345
47	0x3ea21e13	0.3166357
48	0x3e44029f	0.19141625
49	0x3ecf2ae1	0.40462402
50	0x3d190ec0	0.037367582
51	0x3fc797db	1.5593218
52	0xbe2809ba	-0.1640996
53	0x3e82c790	0.2554288
54	0x3f949209	1.1607066
55	0xbf0681e1	-0.5254193
56	0xbf800814	-1.0002465
57	0xbe0a6fe4	-0.13519245
58	0xbf1ae5ea	-0.6050707
59	0x3fb903d9	1.4454299
60	0xbedab356	-0.42714947
61	0xbfa46eb9	-1.284629
62	0xbec6760f	-0.38761947
63	0x3f6bf3c1	0.92168814

weight f4 [64, 96]
0	0xbdc9ec03	-0.09859469
1	0x3c18eb78	0.009333484
2	0xbd0e3c97	-0.03472575
3	0xbd50957c	-0.05092381
4	0x3bdc3d92	0.006721207
5	0xbdd64670	-0.10462654
6	0xbcd2c912	-0.025730643
7	0xbd8fd5b2	-0.07023181
8	0xba234f57	-0.0006229779
9	0xbd00f684	-0.031485096
10	0xbdaa450c	-0.08313951
11	0x3d1bd286	0.038042568
12	0x3cfe06b1	0.03100905
13	0xbc8abf7a	-0.016937006
14	0x3d8db830	0.069198966
15	0xbce957ef	-0.028484313
16	0xbdc711b0	-0.097201705
17	0x3c84fa8f	0.016232757
18	0xbd8994aa	-0.067178085
19	0xbdc21124	-0.094759256
20	0xbdbe4f56	-0.09292476
21	0x3d0ec24d	0.03485327
22	0xbd72e84e	-0.059303574
23	0xbd66e9b9	-0.05637524
24	0x3d90aefb	0.07064625
25	0xbdadb00c	-0.08480844
26	0xbdc4c060	-0.09607005
27	0xbd092a7d	-0.033487786
28	0xbdab6547	-0.083689265
29	0xbd7fcbdb	-0.06245027
30	0x3c213397	0.00983896
31	0x3dc2a04d	0.09503231
32	0x3d1fe5c1	0.03903747
33	0xbd95a124	-0.07306126
34	0x3d438167	0.04773083
35	0xbd871f09	-0.06597716
36	0xbd6ca876	-0.057777844
37	0xbdc7cfd5	-0.09756438
38	0xbd354154	-0.044251755
39	0xbd56422e	-0.052309208
40	0xbc6017ac	-0.013677519
41	0x3cb0b2ab	0.02156957
42	0x3c8feae2	0.017568056
43	0xbcdb5e79	-0.026778447
44	0xbdb622f7	-0.08893388
45	0x3c11c500	0.008897066
46	0xbdb6d686	-0.08927636
47	0xbdcfa9e4	-0.10139826
48	0x3d5060ed	0.050873686
49	0x3d9c1826	0.076217934
50	0xbdba5445	-0.090981044
51	0x3aeccde2	0.0018066729
52	0x3c3abe82	0.01139796
53	0x3d09a389	0.033603225
54	0x3dbb8c78	0.09157652
55	0xbd1becb3	-0.03806753
56	0xbba62bda	-0.0050711455
57	0x3d9fa237	0.07794612
58	0x3d8f29ff	0.06990432
59	0xbdd4d4e2	-0.10392167
60	0xbd8e9871	-0.0696267
61	0x3d51b181	0.05119467
62	0xbd6ec41e	-0.0582925
63	0xbda79aed	-0.081838466
64	0xbdc20b53	-0.09474816
65	0xbb9df76b	-0.0048207543
66	0x3d64fd08	0.055905372
67	0xbdb74a5c	-0.0894973
68	0x3cbaa1f5	0.022782305
69	0xbda06e2c	-0.078335136
70	0x3d92da65	0.07170562
71	0xbdd31a2a	-0.10307725
72	0xbdba97e4	-0.09111002
73	0xbd7901b6	-0.060792647
74	0xbd8cee68	-0.0688141
75	0xbd18d287	-0.03731015
76	0x3d4c634b	0.04989938
77	0xbd8ee9a0	-0.06978154
78	0x3db15723	0.08659198
79	0xbc6803e3	-0.014161083
80	0x3d34e14b	0.04416017
81	0x3c8ea03c	0.01741039
82	0xbd6bb195	-0.057542402
83	0xbd8793df	-0.06620001
84	0xbc6d39de	-0.014479129
85	0xbd38fec0	-0.045164824
86	0x3d787442	0.060657747
87	0x3d32eacc	0.04368095
88	0x3c14bee6	0.009078717
89	0xbd8bc13c	-0.06823966
90	0xbd86853d	-0.06568382
91	0xbbd237a4	-0.0064153243
92	0x3c94445a	0.018098999
93	0xbda37133	-0.079805754
94	0xbc5e1367	-0.013554431
95	0xbdab53ca	-0.08365591
96	0xbe3fd78d	-0.1873457
97	0xbd4f250f	-0.05057245
98	0xbde19f48	-0.110167086
99	0xbd9add6e	-0.075617656
100	0x3dc22edc	0.09481594
101	0x3cf72873	0.030170655
102	0x3e608c42	0.21928504
103	0x3e48663c	0.1957025
104	0xbdfb3ce9	-0.12267477
105	0xbd55d9f7	-0.05220982
106	0x3dd7d468	0.1053856
107	0x3e055ce4	0.13023716
108	0xbe3b5e8e	-0.18297789
109	0x3d7e89fe	0.06214332
110	0xbe04308f	-0.12909149
111	0xbd904d07	-0.07045942
112	0xbe1dbaf5	-0.1540335
113	0x3e9053e3	0.28189
114	0x3cc50c24	0.02405364
115	0x3d96a77d	0.073561646
116	0x3e0b9db3	0.13634376
117	0x3daa4576	0.0831403
118	0x3df556d3	0.11979451
119	0x3ea4ea55	0.3221003
120	0xbd850913	-0.064958714
121	0xbeb5b643	-0.35490617
122	0xbc14216c	-0.0090411715
123	0x3d761b24	0.060084477
124	0x3db0bb36	0.08629458
125	0x3df59ef0	0.119932055
126	0x3e2c326c	0.1681611
127	0x3cfc4511	0.030794652
128	0xbd9a4bd7	-0.075339966
129	0xbc89d282	-0.01682401
130	0xbe2a1267	-0.16608582
131	0x3c7c56c2	0.015401544
132	0xbd928147	-0.07153564
133	0xbd732490	-0.05936104
134	0xbe367052	-0.17816284
135	0xbec11fe8	-0.37719655
136	0xbdfca3b9	-0.12335915
137	0xbe2e6b68	-0.1703316
138	0xbd3a14b5	-0.045429904
139	0xbe16562c	-0.1468131
140	0x3e71bd8c	0.23607463
141	0xbe23b867	-0.15988313
142	0xbe004f56	-0.12530264
143	0x3e01a9ed	0.12662478
144	0xbe0196d5	-0.12655194
145	0xbed63da8	-0.41843915
146	0xbe41477c	-0.18874925
147	0xbe377cdf	-0.17918728
148	0xbe1a4c15	-0.15068085
149	0x3e08fbbc	0.13377279
150	0xbe8b3ff1	-0.2719722
151	0x3da4dcee	0.080499515
152	0x3e7c26f8	0.2462424
153	0xbe01add7	-0.12663971
154	0x3dda648e	0.106637105
155	0x3e280319	0.16407432
156	0xbe4dff11	-0.20116831
157	0xbdcb20af	-0.09918343
158	0xbe3d2149	-0.18469729
159	0xbe95672a	-0.2918027
160	0x3c986d9a	0.01860695
161	0x3e2509f9	0.16117086
162	0xbec2a68c	-0.3801769
163	0x3d2dbce9	0.042416487
164	0x3d0001cd	0.031251717
165	0xbd6f5b61	-0.058436755
166	0x3da0c9be	0.07850979
167	0xbe650e65	-0.22368772
168	0x3b7ef5e5	0.0038903889
169	0xbba46527	-0.005016941
170	0xbd7f4de9	-0.06233016
171	0x3d3a29f7	0.045450177
172	0xbe9a92f1	-0.30190232
173	0x3dddf15e	0.10837053
174	0xbdbf9043	-0.093536876
175	0xbd2d2222	-0.04226888
176	0xbd947f2f	-0.07250821
177	0x3c8913b9	0.016733037
178	0xbdd2376a	-0.10264476
179	0xbdbe34d8	-0.09287423
180	0xbe84d522	-0.25943857
181	0xbda3bb8e	-0.079947576
182	0xbe72698b	-0.23673074
183	0x3cbd91e5	0.023140857
184	0x3e01d092	0.1267722
185	0xbe04390f	-0.12912391
186	0x3e051d9a	0.12999573
187	0x3da056e9	0.07829077
188	0x3e47bde7	0.19506036
189	0x3e9bfd70	0.30466795
190	0x3e4bf175	0.19916327
191	0xbd580bc5	-0.0527456
192	0xbb802c51	-0.003911533
193	0x3e43d05a	0.19122449
194	0x3d521a2e	0.0512945
195	0x3dfc1fbd	0.12310741
196	0xbe5a3989	-0.2131101
197	0xbe042cb0	-0.12907672
198	0xbdb1f7f6	-0.08689873
199	0xbdfd829f	-0.123784296
200	0x3e77eb5f	0.2421088
201	0xbd951e78	-0.07281202
202	0x3dfd7bc4	0.12377122
203	0x3de51f1a	0.11187573
204	0xbe70a1e3	-0.23499255
205	0x3cb0e319	0.021592664
206	0x3aa23b77	0.0012377341
207	0xbe0eb00e	-0.13934347
208	0x3de2335f	0.110449545
209	0x3d5b22ef	0.053500112
210	0x3da9ce66	0.082913205
211	0x3dc6c3ca	0.097053126
212	0xbdeb5cb8	-0.11492294
213	0x3c1ef8ff	0.00970292
214	0x3da0f7fd	0.078598
215	0xbe66f0c9	-0.2255279
216	0xbb7078d5	-0.0036693115
217	0x3c019067	0.007907963
218	0xbdb02515	-0.08600823
219	0xbe700954	-0.23441058
220	0x3e3f1438	0.18660057
221	0xbc9d03f3	-0.019166922
222	0x3e193e47	0.14965163
223	0xbe7d9283	-0.24762921
224	0x3d80231d	0.06256697
225	0x3c6d2e59	0.014476382
226	0x3e1701f6	0.14746842
227	0xbd70ebe0	-0.058818698
228	0xbe568d61	-0.2095237
229	0x3d959ada	0.07304926
230	0xbe197010	-0.14984155
231	0xbddd3e99	-0.10802955
232	0x3d696def	0.056989606
233	0x3dde530d	0.108556844
234	0xbd266b3f	-0.04062962
235	0x3d2bb49a	0.041920282
236	0x3dd02c6b	0.10164722
237	0x3c2ae3bb	0.010430272
238	0x3e2d471f	0.16921662
239	0xbe840f84	-0.25793087
240	0xbc9975a0	-0.018732846
241	0x3e0ac349	0.13551058
242	0x3dd3865d	0.10328362
243	0xbe00e697	-0.12587963
244	0x3d625d75	0.05526491
245	0xbb68f843	-0.0035548366
246	0xbb19977d	-0.0023436241
247	0x3d5abc07	0.053401973
248	0xbd51e2a6	-0.05124154
249	0x3e2df583	0.16988187
250	0xbd9b1225	-0.0757182
251	0x3dd6a12c	0.1047996
252	0xbd464090	-0.048401415
253	0x3da112a6	0.07864885
254	0xbe283aeb	-0.16428725
255	0xbdab2100	-0.083559036

bias f4 [64]
0	0xbdd154e5	-0.102212705
1	0xbd4c7c3f	-0.049923178
2	0xbd739dfa	-0.05947683
3	0xbb49d5ba	-0.0030797557
4	0x3d7dc8d1	0.06195909
5	0xbdffe889	-0.124955244
6	0xbd8e7ead	-0.06957755
7	0xbd39416b	-0.045228403
8	0x3dfe6a34	0.124226004
9	0xbd803a44	-0.06261113
10	0xbd7ce63b	-0.061743002
11	0x3db5a7c1	0.08869887
12	0x3d1a6174	0.037690595
13	0x3c12dd53	0.008963901
14	0xbd8c9dd1	-0.068660386
15	0xbb8a3df0	-0.0042188093
16	0xbd88ff74	-0.06689349
17	0x3c5cccfc	0.013476606
18	0xbde83259	-0.11337728
19	0x3c1a50a5	0.009418641
20	0xbdce8bdf	-0.10085272
21	0x3cb5dd29	0.022200184
22	0xbdae20e3	-0.085023664
23	0x3de13182	0.10995771
24	0xbe11f0b2	-0.14251974
25	0xbda115bb	-0.07865473
26	0x3dae5718	0.085127056
27	0xba1818fc	-0.0005802063
28	0xbe16d04d	-0.14727898
29	0x3cd170af	0.025566427
30	0x3da205b1	0.07911242
31	0x3e20f281	0.15717508
32	0xbcdc4658	-0.026889011
33	0x3db38e58	0.08767384
34	0xbe162384	-0.14661986
35	0xbc676188	-0.014122374
36	0x3c755f2f	0.014976307
37	0x3ba0dd2d	0.0049091787
38	0x3cf51ecf	0.029921917
39	0xbd2351db	-0.039872985
40	0xbc446427	-0.011986769
41	0xbce22305	-0.02760459
42	0x3d3ce416	0.046115957
43	0x3e44b00c	0.19207782
44	0xbd22707d	-0.03965806
45	0xbb500eea	-0.003174717
46	0xbd756f08	-0.05992034
47	0xbd221c44	-0.039577737
48	0xbddde96b	-0.108355366
49	0xbc04ddf3	-0.008109557
50	0x39ccd54c	0.0003906883
51	0xbda8199a	-0.08208008
52	0x3de97aa2	0.114003435
53	0xbd01c5f9	-0.031682942
54	0x3d80208a	0.06256206
55	0xbdb7097c	-0.08937356
56	0xbde0cf02	-0.109769836
57	0xbd56225c	-0.05227886
58	0x3eb4a084	0.35278714
59	0x3e2bdf73	0.16784458
60	0xbd5fc428	-0.05463043
61	0xbd1fec0f	-0.039043482
62	0x3d506f6e	0.050887518
63	0xbb09295d	-0.0020929195
